{"class_name": "Model", "config": {"name": "model_1", "layers": [{"name": "data", "class_name": "InputLayer", "config": {"batch_input_shape": [null, 128, 128, 3], "dtype": "float32", "sparse": false, "name": "data"}, "inbound_nodes": []}, {"name": "conv1_zeropadding", "class_name": "ZeroPadding2D", "config": {"name": "conv1_zeropadding", "trainable": true, "padding": [[3, 3], [3, 3]], "data_format": "channels_last"}, "inbound_nodes": [[["data", 0, 0, {}]]]}, {"name": "conv1", "class_name": "Conv2D", "config": {"name": "conv1", "trainable": true, "filters": 64, "kernel_size": [7, 7], "strides": [2, 2], "padding": "valid", "data_format": "channels_last", "dilation_rate": [1, 1], "activation": "linear", "use_bias": false, "kernel_initializer": {"class_name": "VarianceScaling", "config": {"scale": 1.0, "mode": "fan_avg", "distribution": "uniform", "seed": null}}, "bias_initializer": {"class_name": "Zeros", "config": {}}, "kernel_regularizer": null, "bias_regularizer": null, "activity_regularizer": null, "kernel_constraint": null, "bias_constraint": null}, "inbound_nodes": [[["conv1_zeropadding", 0, 0, {}]]]}, {"name": "conv1_bn", "class_name": "BatchNormalization", "config": {"name": "conv1_bn", "trainable": true, "axis": 3, "momentum": 0.99, "epsilon": 1.1e-05, "center": true, "scale": true, "beta_initializer": {"class_name": "Zeros", "config": {}}, "gamma_initializer": {"class_name": "Ones", "config": {}}, "moving_mean_initializer": {"class_name": "Zeros", "config": {}}, "moving_variance_initializer": {"class_name": "Ones", "config": {}}, "beta_regularizer": null, "gamma_regularizer": null, "beta_constraint": null, "gamma_constraint": null}, "inbound_nodes": [[["conv1", 0, 0, {}]]]}, {"name": "conv1_scale", "class_name": "Scale", "config": {"name": "conv1_scale", "trainable": true, "momentum": 0.9, "axis": 3}, "inbound_nodes": [[["conv1_bn", 0, 0, {}]]]}, {"name": "relu1", "class_name": "Activation", "config": {"name": "relu1", "trainable": true, "activation": "relu"}, "inbound_nodes": [[["conv1_scale", 0, 0, {}]]]}, {"name": "pool1_zeropadding", "class_name": "ZeroPadding2D", "config": {"name": "pool1_zeropadding", "trainable": true, "padding": [[1, 1], [1, 1]], "data_format": "channels_last"}, "inbound_nodes": [[["relu1", 0, 0, {}]]]}, {"name": "pool1", "class_name": "MaxPooling2D", "config": {"name": "pool1", "trainable": true, "pool_size": [3, 3], "padding": "valid", "strides": [2, 2], "data_format": "channels_last"}, "inbound_nodes": [[["pool1_zeropadding", 0, 0, {}]]]}, {"name": "conv2_1_x1_bn", "class_name": "BatchNormalization", "config": {"name": "conv2_1_x1_bn", "trainable": true, "axis": 3, "momentum": 0.99, "epsilon": 1.1e-05, "center": true, "scale": true, "beta_initializer": {"class_name": "Zeros", "config": {}}, "gamma_initializer": {"class_name": "Ones", "config": {}}, "moving_mean_initializer": {"class_name": "Zeros", "config": {}}, "moving_variance_initializer": {"class_name": "Ones", "config": {}}, "beta_regularizer": null, "gamma_regularizer": null, "beta_constraint": null, "gamma_constraint": null}, "inbound_nodes": [[["pool1", 0, 0, {}]]]}, {"name": "conv2_1_x1_scale", "class_name": "Scale", "config": {"name": "conv2_1_x1_scale", "trainable": true, "momentum": 0.9, "axis": 3}, "inbound_nodes": [[["conv2_1_x1_bn", 0, 0, {}]]]}, {"name": "relu2_1_x1", "class_name": "Activation", "config": {"name": "relu2_1_x1", "trainable": true, "activation": "relu"}, "inbound_nodes": [[["conv2_1_x1_scale", 0, 0, {}]]]}, {"name": "conv2_1_x1", "class_name": "Conv2D", "config": {"name": "conv2_1_x1", "trainable": true, "filters": 128, "kernel_size": [1, 1], "strides": [1, 1], "padding": "valid", "data_format": "channels_last", "dilation_rate": [1, 1], "activation": "linear", "use_bias": false, "kernel_initializer": {"class_name": "VarianceScaling", "config": {"scale": 1.0, "mode": "fan_avg", "distribution": "uniform", "seed": null}}, "bias_initializer": {"class_name": "Zeros", "config": {}}, "kernel_regularizer": null, "bias_regularizer": null, "activity_regularizer": null, "kernel_constraint": null, "bias_constraint": null}, "inbound_nodes": [[["relu2_1_x1", 0, 0, {}]]]}, {"name": "conv2_1_x2_bn", "class_name": "BatchNormalization", "config": {"name": "conv2_1_x2_bn", "trainable": true, "axis": 3, "momentum": 0.99, "epsilon": 1.1e-05, "center": true, "scale": true, "beta_initializer": {"class_name": "Zeros", "config": {}}, "gamma_initializer": {"class_name": "Ones", "config": {}}, "moving_mean_initializer": {"class_name": "Zeros", "config": {}}, "moving_variance_initializer": {"class_name": "Ones", "config": {}}, "beta_regularizer": null, "gamma_regularizer": null, "beta_constraint": null, "gamma_constraint": null}, "inbound_nodes": [[["conv2_1_x1", 0, 0, {}]]]}, {"name": "conv2_1_x2_scale", "class_name": "Scale", "config": {"name": "conv2_1_x2_scale", "trainable": true, "momentum": 0.9, "axis": 3}, "inbound_nodes": [[["conv2_1_x2_bn", 0, 0, {}]]]}, {"name": "relu2_1_x2", "class_name": "Activation", "config": {"name": "relu2_1_x2", "trainable": true, "activation": "relu"}, "inbound_nodes": [[["conv2_1_x2_scale", 0, 0, {}]]]}, {"name": "conv2_1_x2_zeropadding", "class_name": "ZeroPadding2D", "config": {"name": "conv2_1_x2_zeropadding", "trainable": true, "padding": [[1, 1], [1, 1]], "data_format": "channels_last"}, "inbound_nodes": [[["relu2_1_x2", 0, 0, {}]]]}, {"name": "conv2_1_x2", "class_name": "Conv2D", "config": {"name": "conv2_1_x2", "trainable": true, "filters": 32, "kernel_size": [3, 3], "strides": [1, 1], "padding": "valid", "data_format": "channels_last", "dilation_rate": [1, 1], "activation": "linear", "use_bias": false, "kernel_initializer": {"class_name": "VarianceScaling", "config": {"scale": 1.0, "mode": "fan_avg", "distribution": "uniform", "seed": null}}, "bias_initializer": {"class_name": "Zeros", "config": {}}, "kernel_regularizer": null, "bias_regularizer": null, "activity_regularizer": null, "kernel_constraint": null, "bias_constraint": null}, "inbound_nodes": [[["conv2_1_x2_zeropadding", 0, 0, {}]]]}, {"name": "concat_2_1", "class_name": "Concatenate", "config": {"name": "concat_2_1", "trainable": true, "axis": 3}, "inbound_nodes": [[["pool1", 0, 0, {}], ["conv2_1_x2", 0, 0, {}]]]}, {"name": "conv2_2_x1_bn", "class_name": "BatchNormalization", "config": {"name": "conv2_2_x1_bn", "trainable": true, "axis": 3, "momentum": 0.99, "epsilon": 1.1e-05, "center": true, "scale": true, "beta_initializer": {"class_name": "Zeros", "config": {}}, "gamma_initializer": {"class_name": "Ones", "config": {}}, "moving_mean_initializer": {"class_name": "Zeros", "config": {}}, "moving_variance_initializer": {"class_name": "Ones", "config": {}}, "beta_regularizer": null, "gamma_regularizer": null, "beta_constraint": null, "gamma_constraint": null}, "inbound_nodes": [[["concat_2_1", 0, 0, {}]]]}, {"name": "conv2_2_x1_scale", "class_name": "Scale", "config": {"name": "conv2_2_x1_scale", "trainable": true, "momentum": 0.9, "axis": 3}, "inbound_nodes": [[["conv2_2_x1_bn", 0, 0, {}]]]}, {"name": "relu2_2_x1", "class_name": "Activation", "config": {"name": "relu2_2_x1", "trainable": true, "activation": "relu"}, "inbound_nodes": [[["conv2_2_x1_scale", 0, 0, {}]]]}, {"name": "conv2_2_x1", "class_name": "Conv2D", "config": {"name": "conv2_2_x1", "trainable": true, "filters": 128, "kernel_size": [1, 1], "strides": [1, 1], "padding": "valid", "data_format": "channels_last", "dilation_rate": [1, 1], "activation": "linear", "use_bias": false, "kernel_initializer": {"class_name": "VarianceScaling", "config": {"scale": 1.0, "mode": "fan_avg", "distribution": "uniform", "seed": null}}, "bias_initializer": {"class_name": "Zeros", "config": {}}, "kernel_regularizer": null, "bias_regularizer": null, "activity_regularizer": null, "kernel_constraint": null, "bias_constraint": null}, "inbound_nodes": [[["relu2_2_x1", 0, 0, {}]]]}, {"name": "conv2_2_x2_bn", "class_name": "BatchNormalization", "config": {"name": "conv2_2_x2_bn", "trainable": true, "axis": 3, "momentum": 0.99, "epsilon": 1.1e-05, "center": true, "scale": true, "beta_initializer": {"class_name": "Zeros", "config": {}}, "gamma_initializer": {"class_name": "Ones", "config": {}}, "moving_mean_initializer": {"class_name": "Zeros", "config": {}}, "moving_variance_initializer": {"class_name": "Ones", "config": {}}, "beta_regularizer": null, "gamma_regularizer": null, "beta_constraint": null, "gamma_constraint": null}, "inbound_nodes": [[["conv2_2_x1", 0, 0, {}]]]}, {"name": "conv2_2_x2_scale", "class_name": "Scale", "config": {"name": "conv2_2_x2_scale", "trainable": true, "momentum": 0.9, "axis": 3}, "inbound_nodes": [[["conv2_2_x2_bn", 0, 0, {}]]]}, {"name": "relu2_2_x2", "class_name": "Activation", "config": {"name": "relu2_2_x2", "trainable": true, "activation": "relu"}, "inbound_nodes": [[["conv2_2_x2_scale", 0, 0, {}]]]}, {"name": "conv2_2_x2_zeropadding", "class_name": "ZeroPadding2D", "config": {"name": "conv2_2_x2_zeropadding", "trainable": true, "padding": [[1, 1], [1, 1]], "data_format": "channels_last"}, "inbound_nodes": [[["relu2_2_x2", 0, 0, {}]]]}, {"name": "conv2_2_x2", "class_name": "Conv2D", "config": {"name": "conv2_2_x2", "trainable": true, "filters": 32, "kernel_size": [3, 3], "strides": [1, 1], "padding": "valid", "data_format": "channels_last", "dilation_rate": [1, 1], "activation": "linear", "use_bias": false, "kernel_initializer": {"class_name": "VarianceScaling", "config": {"scale": 1.0, "mode": "fan_avg", "distribution": "uniform", "seed": null}}, "bias_initializer": {"class_name": "Zeros", "config": {}}, "kernel_regularizer": null, "bias_regularizer": null, "activity_regularizer": null, "kernel_constraint": null, "bias_constraint": null}, "inbound_nodes": [[["conv2_2_x2_zeropadding", 0, 0, {}]]]}, {"name": "concat_2_2", "class_name": "Concatenate", "config": {"name": "concat_2_2", "trainable": true, "axis": 3}, "inbound_nodes": [[["concat_2_1", 0, 0, {}], ["conv2_2_x2", 0, 0, {}]]]}, {"name": "conv2_3_x1_bn", "class_name": "BatchNormalization", "config": {"name": "conv2_3_x1_bn", "trainable": true, "axis": 3, "momentum": 0.99, "epsilon": 1.1e-05, "center": true, "scale": true, "beta_initializer": {"class_name": "Zeros", "config": {}}, "gamma_initializer": {"class_name": "Ones", "config": {}}, "moving_mean_initializer": {"class_name": "Zeros", "config": {}}, "moving_variance_initializer": {"class_name": "Ones", "config": {}}, "beta_regularizer": null, "gamma_regularizer": null, "beta_constraint": null, "gamma_constraint": null}, "inbound_nodes": [[["concat_2_2", 0, 0, {}]]]}, {"name": "conv2_3_x1_scale", "class_name": "Scale", "config": {"name": "conv2_3_x1_scale", "trainable": true, "momentum": 0.9, "axis": 3}, "inbound_nodes": [[["conv2_3_x1_bn", 0, 0, {}]]]}, {"name": "relu2_3_x1", "class_name": "Activation", "config": {"name": "relu2_3_x1", "trainable": true, "activation": "relu"}, "inbound_nodes": [[["conv2_3_x1_scale", 0, 0, {}]]]}, {"name": "conv2_3_x1", "class_name": "Conv2D", "config": {"name": "conv2_3_x1", "trainable": true, "filters": 128, "kernel_size": [1, 1], "strides": [1, 1], "padding": "valid", "data_format": "channels_last", "dilation_rate": [1, 1], "activation": "linear", "use_bias": false, "kernel_initializer": {"class_name": "VarianceScaling", "config": {"scale": 1.0, "mode": "fan_avg", "distribution": "uniform", "seed": null}}, "bias_initializer": {"class_name": "Zeros", "config": {}}, "kernel_regularizer": null, "bias_regularizer": null, "activity_regularizer": null, "kernel_constraint": null, "bias_constraint": null}, "inbound_nodes": [[["relu2_3_x1", 0, 0, {}]]]}, {"name": "conv2_3_x2_bn", "class_name": "BatchNormalization", "config": {"name": "conv2_3_x2_bn", "trainable": true, "axis": 3, "momentum": 0.99, "epsilon": 1.1e-05, "center": true, "scale": true, "beta_initializer": {"class_name": "Zeros", "config": {}}, "gamma_initializer": {"class_name": "Ones", "config": {}}, "moving_mean_initializer": {"class_name": "Zeros", "config": {}}, "moving_variance_initializer": {"class_name": "Ones", "config": {}}, "beta_regularizer": null, "gamma_regularizer": null, "beta_constraint": null, "gamma_constraint": null}, "inbound_nodes": [[["conv2_3_x1", 0, 0, {}]]]}, {"name": "conv2_3_x2_scale", "class_name": "Scale", "config": {"name": "conv2_3_x2_scale", "trainable": true, "momentum": 0.9, "axis": 3}, "inbound_nodes": [[["conv2_3_x2_bn", 0, 0, {}]]]}, {"name": "relu2_3_x2", "class_name": "Activation", "config": {"name": "relu2_3_x2", "trainable": true, "activation": "relu"}, "inbound_nodes": [[["conv2_3_x2_scale", 0, 0, {}]]]}, {"name": "conv2_3_x2_zeropadding", "class_name": "ZeroPadding2D", "config": {"name": "conv2_3_x2_zeropadding", "trainable": true, "padding": [[1, 1], [1, 1]], "data_format": "channels_last"}, "inbound_nodes": [[["relu2_3_x2", 0, 0, {}]]]}, {"name": "conv2_3_x2", "class_name": "Conv2D", "config": {"name": "conv2_3_x2", "trainable": true, "filters": 32, "kernel_size": [3, 3], "strides": [1, 1], "padding": "valid", "data_format": "channels_last", "dilation_rate": [1, 1], "activation": "linear", "use_bias": false, "kernel_initializer": {"class_name": "VarianceScaling", "config": {"scale": 1.0, "mode": "fan_avg", "distribution": "uniform", "seed": null}}, "bias_initializer": {"class_name": "Zeros", "config": {}}, "kernel_regularizer": null, "bias_regularizer": null, "activity_regularizer": null, "kernel_constraint": null, "bias_constraint": null}, "inbound_nodes": [[["conv2_3_x2_zeropadding", 0, 0, {}]]]}, {"name": "concat_2_3", "class_name": "Concatenate", "config": {"name": "concat_2_3", "trainable": true, "axis": 3}, "inbound_nodes": [[["concat_2_2", 0, 0, {}], ["conv2_3_x2", 0, 0, {}]]]}, {"name": "conv2_4_x1_bn", "class_name": "BatchNormalization", "config": {"name": "conv2_4_x1_bn", "trainable": true, "axis": 3, "momentum": 0.99, "epsilon": 1.1e-05, "center": true, "scale": true, "beta_initializer": {"class_name": "Zeros", "config": {}}, "gamma_initializer": {"class_name": "Ones", "config": {}}, "moving_mean_initializer": {"class_name": "Zeros", "config": {}}, "moving_variance_initializer": {"class_name": "Ones", "config": {}}, "beta_regularizer": null, "gamma_regularizer": null, "beta_constraint": null, "gamma_constraint": null}, "inbound_nodes": [[["concat_2_3", 0, 0, {}]]]}, {"name": "conv2_4_x1_scale", "class_name": "Scale", "config": {"name": "conv2_4_x1_scale", "trainable": true, "momentum": 0.9, "axis": 3}, "inbound_nodes": [[["conv2_4_x1_bn", 0, 0, {}]]]}, {"name": "relu2_4_x1", "class_name": "Activation", "config": {"name": "relu2_4_x1", "trainable": true, "activation": "relu"}, "inbound_nodes": [[["conv2_4_x1_scale", 0, 0, {}]]]}, {"name": "conv2_4_x1", "class_name": "Conv2D", "config": {"name": "conv2_4_x1", "trainable": true, "filters": 128, "kernel_size": [1, 1], "strides": [1, 1], "padding": "valid", "data_format": "channels_last", "dilation_rate": [1, 1], "activation": "linear", "use_bias": false, "kernel_initializer": {"class_name": "VarianceScaling", "config": {"scale": 1.0, "mode": "fan_avg", "distribution": "uniform", "seed": null}}, "bias_initializer": {"class_name": "Zeros", "config": {}}, "kernel_regularizer": null, "bias_regularizer": null, "activity_regularizer": null, "kernel_constraint": null, "bias_constraint": null}, "inbound_nodes": [[["relu2_4_x1", 0, 0, {}]]]}, {"name": "conv2_4_x2_bn", "class_name": "BatchNormalization", "config": {"name": "conv2_4_x2_bn", "trainable": true, "axis": 3, "momentum": 0.99, "epsilon": 1.1e-05, "center": true, "scale": true, "beta_initializer": {"class_name": "Zeros", "config": {}}, "gamma_initializer": {"class_name": "Ones", "config": {}}, "moving_mean_initializer": {"class_name": "Zeros", "config": {}}, "moving_variance_initializer": {"class_name": "Ones", "config": {}}, "beta_regularizer": null, "gamma_regularizer": null, "beta_constraint": null, "gamma_constraint": null}, "inbound_nodes": [[["conv2_4_x1", 0, 0, {}]]]}, {"name": "conv2_4_x2_scale", "class_name": "Scale", "config": {"name": "conv2_4_x2_scale", "trainable": true, "momentum": 0.9, "axis": 3}, "inbound_nodes": [[["conv2_4_x2_bn", 0, 0, {}]]]}, {"name": "relu2_4_x2", "class_name": "Activation", "config": {"name": "relu2_4_x2", "trainable": true, "activation": "relu"}, "inbound_nodes": [[["conv2_4_x2_scale", 0, 0, {}]]]}, {"name": "conv2_4_x2_zeropadding", "class_name": "ZeroPadding2D", "config": {"name": "conv2_4_x2_zeropadding", "trainable": true, "padding": [[1, 1], [1, 1]], "data_format": "channels_last"}, "inbound_nodes": [[["relu2_4_x2", 0, 0, {}]]]}, {"name": "conv2_4_x2", "class_name": "Conv2D", "config": {"name": "conv2_4_x2", "trainable": true, "filters": 32, "kernel_size": [3, 3], "strides": [1, 1], "padding": "valid", "data_format": "channels_last", "dilation_rate": [1, 1], "activation": "linear", "use_bias": false, "kernel_initializer": {"class_name": "VarianceScaling", "config": {"scale": 1.0, "mode": "fan_avg", "distribution": "uniform", "seed": null}}, "bias_initializer": {"class_name": "Zeros", "config": {}}, "kernel_regularizer": null, "bias_regularizer": null, "activity_regularizer": null, "kernel_constraint": null, "bias_constraint": null}, "inbound_nodes": [[["conv2_4_x2_zeropadding", 0, 0, {}]]]}, {"name": "concat_2_4", "class_name": "Concatenate", "config": {"name": "concat_2_4", "trainable": true, "axis": 3}, "inbound_nodes": [[["concat_2_3", 0, 0, {}], ["conv2_4_x2", 0, 0, {}]]]}, {"name": "conv2_5_x1_bn", "class_name": "BatchNormalization", "config": {"name": "conv2_5_x1_bn", "trainable": true, "axis": 3, "momentum": 0.99, "epsilon": 1.1e-05, "center": true, "scale": true, "beta_initializer": {"class_name": "Zeros", "config": {}}, "gamma_initializer": {"class_name": "Ones", "config": {}}, "moving_mean_initializer": {"class_name": "Zeros", "config": {}}, "moving_variance_initializer": {"class_name": "Ones", "config": {}}, "beta_regularizer": null, "gamma_regularizer": null, "beta_constraint": null, "gamma_constraint": null}, "inbound_nodes": [[["concat_2_4", 0, 0, {}]]]}, {"name": "conv2_5_x1_scale", "class_name": "Scale", "config": {"name": "conv2_5_x1_scale", "trainable": true, "momentum": 0.9, "axis": 3}, "inbound_nodes": [[["conv2_5_x1_bn", 0, 0, {}]]]}, {"name": "relu2_5_x1", "class_name": "Activation", "config": {"name": "relu2_5_x1", "trainable": true, "activation": "relu"}, "inbound_nodes": [[["conv2_5_x1_scale", 0, 0, {}]]]}, {"name": "conv2_5_x1", "class_name": "Conv2D", "config": {"name": "conv2_5_x1", "trainable": true, "filters": 128, "kernel_size": [1, 1], "strides": [1, 1], "padding": "valid", "data_format": "channels_last", "dilation_rate": [1, 1], "activation": "linear", "use_bias": false, "kernel_initializer": {"class_name": "VarianceScaling", "config": {"scale": 1.0, "mode": "fan_avg", "distribution": "uniform", "seed": null}}, "bias_initializer": {"class_name": "Zeros", "config": {}}, "kernel_regularizer": null, "bias_regularizer": null, "activity_regularizer": null, "kernel_constraint": null, "bias_constraint": null}, "inbound_nodes": [[["relu2_5_x1", 0, 0, {}]]]}, {"name": "conv2_5_x2_bn", "class_name": "BatchNormalization", "config": {"name": "conv2_5_x2_bn", "trainable": true, "axis": 3, "momentum": 0.99, "epsilon": 1.1e-05, "center": true, "scale": true, "beta_initializer": {"class_name": "Zeros", "config": {}}, "gamma_initializer": {"class_name": "Ones", "config": {}}, "moving_mean_initializer": {"class_name": "Zeros", "config": {}}, "moving_variance_initializer": {"class_name": "Ones", "config": {}}, "beta_regularizer": null, "gamma_regularizer": null, "beta_constraint": null, "gamma_constraint": null}, "inbound_nodes": [[["conv2_5_x1", 0, 0, {}]]]}, {"name": "conv2_5_x2_scale", "class_name": "Scale", "config": {"name": "conv2_5_x2_scale", "trainable": true, "momentum": 0.9, "axis": 3}, "inbound_nodes": [[["conv2_5_x2_bn", 0, 0, {}]]]}, {"name": "relu2_5_x2", "class_name": "Activation", "config": {"name": "relu2_5_x2", "trainable": true, "activation": "relu"}, "inbound_nodes": [[["conv2_5_x2_scale", 0, 0, {}]]]}, {"name": "conv2_5_x2_zeropadding", "class_name": "ZeroPadding2D", "config": {"name": "conv2_5_x2_zeropadding", "trainable": true, "padding": [[1, 1], [1, 1]], "data_format": "channels_last"}, "inbound_nodes": [[["relu2_5_x2", 0, 0, {}]]]}, {"name": "conv2_5_x2", "class_name": "Conv2D", "config": {"name": "conv2_5_x2", "trainable": true, "filters": 32, "kernel_size": [3, 3], "strides": [1, 1], "padding": "valid", "data_format": "channels_last", "dilation_rate": [1, 1], "activation": "linear", "use_bias": false, "kernel_initializer": {"class_name": "VarianceScaling", "config": {"scale": 1.0, "mode": "fan_avg", "distribution": "uniform", "seed": null}}, "bias_initializer": {"class_name": "Zeros", "config": {}}, "kernel_regularizer": null, "bias_regularizer": null, "activity_regularizer": null, "kernel_constraint": null, "bias_constraint": null}, "inbound_nodes": [[["conv2_5_x2_zeropadding", 0, 0, {}]]]}, {"name": "concat_2_5", "class_name": "Concatenate", "config": {"name": "concat_2_5", "trainable": true, "axis": 3}, "inbound_nodes": [[["concat_2_4", 0, 0, {}], ["conv2_5_x2", 0, 0, {}]]]}, {"name": "conv2_6_x1_bn", "class_name": "BatchNormalization", "config": {"name": "conv2_6_x1_bn", "trainable": true, "axis": 3, "momentum": 0.99, "epsilon": 1.1e-05, "center": true, "scale": true, "beta_initializer": {"class_name": "Zeros", "config": {}}, "gamma_initializer": {"class_name": "Ones", "config": {}}, "moving_mean_initializer": {"class_name": "Zeros", "config": {}}, "moving_variance_initializer": {"class_name": "Ones", "config": {}}, "beta_regularizer": null, "gamma_regularizer": null, "beta_constraint": null, "gamma_constraint": null}, "inbound_nodes": [[["concat_2_5", 0, 0, {}]]]}, {"name": "conv2_6_x1_scale", "class_name": "Scale", "config": {"name": "conv2_6_x1_scale", "trainable": true, "momentum": 0.9, "axis": 3}, "inbound_nodes": [[["conv2_6_x1_bn", 0, 0, {}]]]}, {"name": "relu2_6_x1", "class_name": "Activation", "config": {"name": "relu2_6_x1", "trainable": true, "activation": "relu"}, "inbound_nodes": [[["conv2_6_x1_scale", 0, 0, {}]]]}, {"name": "conv2_6_x1", "class_name": "Conv2D", "config": {"name": "conv2_6_x1", "trainable": true, "filters": 128, "kernel_size": [1, 1], "strides": [1, 1], "padding": "valid", "data_format": "channels_last", "dilation_rate": [1, 1], "activation": "linear", "use_bias": false, "kernel_initializer": {"class_name": "VarianceScaling", "config": {"scale": 1.0, "mode": "fan_avg", "distribution": "uniform", "seed": null}}, "bias_initializer": {"class_name": "Zeros", "config": {}}, "kernel_regularizer": null, "bias_regularizer": null, "activity_regularizer": null, "kernel_constraint": null, "bias_constraint": null}, "inbound_nodes": [[["relu2_6_x1", 0, 0, {}]]]}, {"name": "conv2_6_x2_bn", "class_name": "BatchNormalization", "config": {"name": "conv2_6_x2_bn", "trainable": true, "axis": 3, "momentum": 0.99, "epsilon": 1.1e-05, "center": true, "scale": true, "beta_initializer": {"class_name": "Zeros", "config": {}}, "gamma_initializer": {"class_name": "Ones", "config": {}}, "moving_mean_initializer": {"class_name": "Zeros", "config": {}}, "moving_variance_initializer": {"class_name": "Ones", "config": {}}, "beta_regularizer": null, "gamma_regularizer": null, "beta_constraint": null, "gamma_constraint": null}, "inbound_nodes": [[["conv2_6_x1", 0, 0, {}]]]}, {"name": "conv2_6_x2_scale", "class_name": "Scale", "config": {"name": "conv2_6_x2_scale", "trainable": true, "momentum": 0.9, "axis": 3}, "inbound_nodes": [[["conv2_6_x2_bn", 0, 0, {}]]]}, {"name": "relu2_6_x2", "class_name": "Activation", "config": {"name": "relu2_6_x2", "trainable": true, "activation": "relu"}, "inbound_nodes": [[["conv2_6_x2_scale", 0, 0, {}]]]}, {"name": "conv2_6_x2_zeropadding", "class_name": "ZeroPadding2D", "config": {"name": "conv2_6_x2_zeropadding", "trainable": true, "padding": [[1, 1], [1, 1]], "data_format": "channels_last"}, "inbound_nodes": [[["relu2_6_x2", 0, 0, {}]]]}, {"name": "conv2_6_x2", "class_name": "Conv2D", "config": {"name": "conv2_6_x2", "trainable": true, "filters": 32, "kernel_size": [3, 3], "strides": [1, 1], "padding": "valid", "data_format": "channels_last", "dilation_rate": [1, 1], "activation": "linear", "use_bias": false, "kernel_initializer": {"class_name": "VarianceScaling", "config": {"scale": 1.0, "mode": "fan_avg", "distribution": "uniform", "seed": null}}, "bias_initializer": {"class_name": "Zeros", "config": {}}, "kernel_regularizer": null, "bias_regularizer": null, "activity_regularizer": null, "kernel_constraint": null, "bias_constraint": null}, "inbound_nodes": [[["conv2_6_x2_zeropadding", 0, 0, {}]]]}, {"name": "concat_2_6", "class_name": "Concatenate", "config": {"name": "concat_2_6", "trainable": true, "axis": 3}, "inbound_nodes": [[["concat_2_5", 0, 0, {}], ["conv2_6_x2", 0, 0, {}]]]}, {"name": "conv2_blk_bn", "class_name": "BatchNormalization", "config": {"name": "conv2_blk_bn", "trainable": true, "axis": 3, "momentum": 0.99, "epsilon": 1.1e-05, "center": true, "scale": true, "beta_initializer": {"class_name": "Zeros", "config": {}}, "gamma_initializer": {"class_name": "Ones", "config": {}}, "moving_mean_initializer": {"class_name": "Zeros", "config": {}}, "moving_variance_initializer": {"class_name": "Ones", "config": {}}, "beta_regularizer": null, "gamma_regularizer": null, "beta_constraint": null, "gamma_constraint": null}, "inbound_nodes": [[["concat_2_6", 0, 0, {}]]]}, {"name": "conv2_blk_scale", "class_name": "Scale", "config": {"name": "conv2_blk_scale", "trainable": true, "momentum": 0.9, "axis": 3}, "inbound_nodes": [[["conv2_blk_bn", 0, 0, {}]]]}, {"name": "relu2_blk", "class_name": "Activation", "config": {"name": "relu2_blk", "trainable": true, "activation": "relu"}, "inbound_nodes": [[["conv2_blk_scale", 0, 0, {}]]]}, {"name": "conv2_blk", "class_name": "Conv2D", "config": {"name": "conv2_blk", "trainable": true, "filters": 128, "kernel_size": [1, 1], "strides": [1, 1], "padding": "valid", "data_format": "channels_last", "dilation_rate": [1, 1], "activation": "linear", "use_bias": false, "kernel_initializer": {"class_name": "VarianceScaling", "config": {"scale": 1.0, "mode": "fan_avg", "distribution": "uniform", "seed": null}}, "bias_initializer": {"class_name": "Zeros", "config": {}}, "kernel_regularizer": null, "bias_regularizer": null, "activity_regularizer": null, "kernel_constraint": null, "bias_constraint": null}, "inbound_nodes": [[["relu2_blk", 0, 0, {}]]]}, {"name": "pool2", "class_name": "AveragePooling2D", "config": {"name": "pool2", "trainable": true, "pool_size": [2, 2], "padding": "valid", "strides": [2, 2], "data_format": "channels_last"}, "inbound_nodes": [[["conv2_blk", 0, 0, {}]]]}, {"name": "conv3_1_x1_bn", "class_name": "BatchNormalization", "config": {"name": "conv3_1_x1_bn", "trainable": true, "axis": 3, "momentum": 0.99, "epsilon": 1.1e-05, "center": true, "scale": true, "beta_initializer": {"class_name": "Zeros", "config": {}}, "gamma_initializer": {"class_name": "Ones", "config": {}}, "moving_mean_initializer": {"class_name": "Zeros", "config": {}}, "moving_variance_initializer": {"class_name": "Ones", "config": {}}, "beta_regularizer": null, "gamma_regularizer": null, "beta_constraint": null, "gamma_constraint": null}, "inbound_nodes": [[["pool2", 0, 0, {}]]]}, {"name": "conv3_1_x1_scale", "class_name": "Scale", "config": {"name": "conv3_1_x1_scale", "trainable": true, "momentum": 0.9, "axis": 3}, "inbound_nodes": [[["conv3_1_x1_bn", 0, 0, {}]]]}, {"name": "relu3_1_x1", "class_name": "Activation", "config": {"name": "relu3_1_x1", "trainable": true, "activation": "relu"}, "inbound_nodes": [[["conv3_1_x1_scale", 0, 0, {}]]]}, {"name": "conv3_1_x1", "class_name": "Conv2D", "config": {"name": "conv3_1_x1", "trainable": true, "filters": 128, "kernel_size": [1, 1], "strides": [1, 1], "padding": "valid", "data_format": "channels_last", "dilation_rate": [1, 1], "activation": "linear", "use_bias": false, "kernel_initializer": {"class_name": "VarianceScaling", "config": {"scale": 1.0, "mode": "fan_avg", "distribution": "uniform", "seed": null}}, "bias_initializer": {"class_name": "Zeros", "config": {}}, "kernel_regularizer": null, "bias_regularizer": null, "activity_regularizer": null, "kernel_constraint": null, "bias_constraint": null}, "inbound_nodes": [[["relu3_1_x1", 0, 0, {}]]]}, {"name": "conv3_1_x2_bn", "class_name": "BatchNormalization", "config": {"name": "conv3_1_x2_bn", "trainable": true, "axis": 3, "momentum": 0.99, "epsilon": 1.1e-05, "center": true, "scale": true, "beta_initializer": {"class_name": "Zeros", "config": {}}, "gamma_initializer": {"class_name": "Ones", "config": {}}, "moving_mean_initializer": {"class_name": "Zeros", "config": {}}, "moving_variance_initializer": {"class_name": "Ones", "config": {}}, "beta_regularizer": null, "gamma_regularizer": null, "beta_constraint": null, "gamma_constraint": null}, "inbound_nodes": [[["conv3_1_x1", 0, 0, {}]]]}, {"name": "conv3_1_x2_scale", "class_name": "Scale", "config": {"name": "conv3_1_x2_scale", "trainable": true, "momentum": 0.9, "axis": 3}, "inbound_nodes": [[["conv3_1_x2_bn", 0, 0, {}]]]}, {"name": "relu3_1_x2", "class_name": "Activation", "config": {"name": "relu3_1_x2", "trainable": true, "activation": "relu"}, "inbound_nodes": [[["conv3_1_x2_scale", 0, 0, {}]]]}, {"name": "conv3_1_x2_zeropadding", "class_name": "ZeroPadding2D", "config": {"name": "conv3_1_x2_zeropadding", "trainable": true, "padding": [[1, 1], [1, 1]], "data_format": "channels_last"}, "inbound_nodes": [[["relu3_1_x2", 0, 0, {}]]]}, {"name": "conv3_1_x2", "class_name": "Conv2D", "config": {"name": "conv3_1_x2", "trainable": true, "filters": 32, "kernel_size": [3, 3], "strides": [1, 1], "padding": "valid", "data_format": "channels_last", "dilation_rate": [1, 1], "activation": "linear", "use_bias": false, "kernel_initializer": {"class_name": "VarianceScaling", "config": {"scale": 1.0, "mode": "fan_avg", "distribution": "uniform", "seed": null}}, "bias_initializer": {"class_name": "Zeros", "config": {}}, "kernel_regularizer": null, "bias_regularizer": null, "activity_regularizer": null, "kernel_constraint": null, "bias_constraint": null}, "inbound_nodes": [[["conv3_1_x2_zeropadding", 0, 0, {}]]]}, {"name": "concat_3_1", "class_name": "Concatenate", "config": {"name": "concat_3_1", "trainable": true, "axis": 3}, "inbound_nodes": [[["pool2", 0, 0, {}], ["conv3_1_x2", 0, 0, {}]]]}, {"name": "conv3_2_x1_bn", "class_name": "BatchNormalization", "config": {"name": "conv3_2_x1_bn", "trainable": true, "axis": 3, "momentum": 0.99, "epsilon": 1.1e-05, "center": true, "scale": true, "beta_initializer": {"class_name": "Zeros", "config": {}}, "gamma_initializer": {"class_name": "Ones", "config": {}}, "moving_mean_initializer": {"class_name": "Zeros", "config": {}}, "moving_variance_initializer": {"class_name": "Ones", "config": {}}, "beta_regularizer": null, "gamma_regularizer": null, "beta_constraint": null, "gamma_constraint": null}, "inbound_nodes": [[["concat_3_1", 0, 0, {}]]]}, {"name": "conv3_2_x1_scale", "class_name": "Scale", "config": {"name": "conv3_2_x1_scale", "trainable": true, "momentum": 0.9, "axis": 3}, "inbound_nodes": [[["conv3_2_x1_bn", 0, 0, {}]]]}, {"name": "relu3_2_x1", "class_name": "Activation", "config": {"name": "relu3_2_x1", "trainable": true, "activation": "relu"}, "inbound_nodes": [[["conv3_2_x1_scale", 0, 0, {}]]]}, {"name": "conv3_2_x1", "class_name": "Conv2D", "config": {"name": "conv3_2_x1", "trainable": true, "filters": 128, "kernel_size": [1, 1], "strides": [1, 1], "padding": "valid", "data_format": "channels_last", "dilation_rate": [1, 1], "activation": "linear", "use_bias": false, "kernel_initializer": {"class_name": "VarianceScaling", "config": {"scale": 1.0, "mode": "fan_avg", "distribution": "uniform", "seed": null}}, "bias_initializer": {"class_name": "Zeros", "config": {}}, "kernel_regularizer": null, "bias_regularizer": null, "activity_regularizer": null, "kernel_constraint": null, "bias_constraint": null}, "inbound_nodes": [[["relu3_2_x1", 0, 0, {}]]]}, {"name": "conv3_2_x2_bn", "class_name": "BatchNormalization", "config": {"name": "conv3_2_x2_bn", "trainable": true, "axis": 3, "momentum": 0.99, "epsilon": 1.1e-05, "center": true, "scale": true, "beta_initializer": {"class_name": "Zeros", "config": {}}, "gamma_initializer": {"class_name": "Ones", "config": {}}, "moving_mean_initializer": {"class_name": "Zeros", "config": {}}, "moving_variance_initializer": {"class_name": "Ones", "config": {}}, "beta_regularizer": null, "gamma_regularizer": null, "beta_constraint": null, "gamma_constraint": null}, "inbound_nodes": [[["conv3_2_x1", 0, 0, {}]]]}, {"name": "conv3_2_x2_scale", "class_name": "Scale", "config": {"name": "conv3_2_x2_scale", "trainable": true, "momentum": 0.9, "axis": 3}, "inbound_nodes": [[["conv3_2_x2_bn", 0, 0, {}]]]}, {"name": "relu3_2_x2", "class_name": "Activation", "config": {"name": "relu3_2_x2", "trainable": true, "activation": "relu"}, "inbound_nodes": [[["conv3_2_x2_scale", 0, 0, {}]]]}, {"name": "conv3_2_x2_zeropadding", "class_name": "ZeroPadding2D", "config": {"name": "conv3_2_x2_zeropadding", "trainable": true, "padding": [[1, 1], [1, 1]], "data_format": "channels_last"}, "inbound_nodes": [[["relu3_2_x2", 0, 0, {}]]]}, {"name": "conv3_2_x2", "class_name": "Conv2D", "config": {"name": "conv3_2_x2", "trainable": true, "filters": 32, "kernel_size": [3, 3], "strides": [1, 1], "padding": "valid", "data_format": "channels_last", "dilation_rate": [1, 1], "activation": "linear", "use_bias": false, "kernel_initializer": {"class_name": "VarianceScaling", "config": {"scale": 1.0, "mode": "fan_avg", "distribution": "uniform", "seed": null}}, "bias_initializer": {"class_name": "Zeros", "config": {}}, "kernel_regularizer": null, "bias_regularizer": null, "activity_regularizer": null, "kernel_constraint": null, "bias_constraint": null}, "inbound_nodes": [[["conv3_2_x2_zeropadding", 0, 0, {}]]]}, {"name": "concat_3_2", "class_name": "Concatenate", "config": {"name": "concat_3_2", "trainable": true, "axis": 3}, "inbound_nodes": [[["concat_3_1", 0, 0, {}], ["conv3_2_x2", 0, 0, {}]]]}, {"name": "conv3_3_x1_bn", "class_name": "BatchNormalization", "config": {"name": "conv3_3_x1_bn", "trainable": true, "axis": 3, "momentum": 0.99, "epsilon": 1.1e-05, "center": true, "scale": true, "beta_initializer": {"class_name": "Zeros", "config": {}}, "gamma_initializer": {"class_name": "Ones", "config": {}}, "moving_mean_initializer": {"class_name": "Zeros", "config": {}}, "moving_variance_initializer": {"class_name": "Ones", "config": {}}, "beta_regularizer": null, "gamma_regularizer": null, "beta_constraint": null, "gamma_constraint": null}, "inbound_nodes": [[["concat_3_2", 0, 0, {}]]]}, {"name": "conv3_3_x1_scale", "class_name": "Scale", "config": {"name": "conv3_3_x1_scale", "trainable": true, "momentum": 0.9, "axis": 3}, "inbound_nodes": [[["conv3_3_x1_bn", 0, 0, {}]]]}, {"name": "relu3_3_x1", "class_name": "Activation", "config": {"name": "relu3_3_x1", "trainable": true, "activation": "relu"}, "inbound_nodes": [[["conv3_3_x1_scale", 0, 0, {}]]]}, {"name": "conv3_3_x1", "class_name": "Conv2D", "config": {"name": "conv3_3_x1", "trainable": true, "filters": 128, "kernel_size": [1, 1], "strides": [1, 1], "padding": "valid", "data_format": "channels_last", "dilation_rate": [1, 1], "activation": "linear", "use_bias": false, "kernel_initializer": {"class_name": "VarianceScaling", "config": {"scale": 1.0, "mode": "fan_avg", "distribution": "uniform", "seed": null}}, "bias_initializer": {"class_name": "Zeros", "config": {}}, "kernel_regularizer": null, "bias_regularizer": null, "activity_regularizer": null, "kernel_constraint": null, "bias_constraint": null}, "inbound_nodes": [[["relu3_3_x1", 0, 0, {}]]]}, {"name": "conv3_3_x2_bn", "class_name": "BatchNormalization", "config": {"name": "conv3_3_x2_bn", "trainable": true, "axis": 3, "momentum": 0.99, "epsilon": 1.1e-05, "center": true, "scale": true, "beta_initializer": {"class_name": "Zeros", "config": {}}, "gamma_initializer": {"class_name": "Ones", "config": {}}, "moving_mean_initializer": {"class_name": "Zeros", "config": {}}, "moving_variance_initializer": {"class_name": "Ones", "config": {}}, "beta_regularizer": null, "gamma_regularizer": null, "beta_constraint": null, "gamma_constraint": null}, "inbound_nodes": [[["conv3_3_x1", 0, 0, {}]]]}, {"name": "conv3_3_x2_scale", "class_name": "Scale", "config": {"name": "conv3_3_x2_scale", "trainable": true, "momentum": 0.9, "axis": 3}, "inbound_nodes": [[["conv3_3_x2_bn", 0, 0, {}]]]}, {"name": "relu3_3_x2", "class_name": "Activation", "config": {"name": "relu3_3_x2", "trainable": true, "activation": "relu"}, "inbound_nodes": [[["conv3_3_x2_scale", 0, 0, {}]]]}, {"name": "conv3_3_x2_zeropadding", "class_name": "ZeroPadding2D", "config": {"name": "conv3_3_x2_zeropadding", "trainable": true, "padding": [[1, 1], [1, 1]], "data_format": "channels_last"}, "inbound_nodes": [[["relu3_3_x2", 0, 0, {}]]]}, {"name": "conv3_3_x2", "class_name": "Conv2D", "config": {"name": "conv3_3_x2", "trainable": true, "filters": 32, "kernel_size": [3, 3], "strides": [1, 1], "padding": "valid", "data_format": "channels_last", "dilation_rate": [1, 1], "activation": "linear", "use_bias": false, "kernel_initializer": {"class_name": "VarianceScaling", "config": {"scale": 1.0, "mode": "fan_avg", "distribution": "uniform", "seed": null}}, "bias_initializer": {"class_name": "Zeros", "config": {}}, "kernel_regularizer": null, "bias_regularizer": null, "activity_regularizer": null, "kernel_constraint": null, "bias_constraint": null}, "inbound_nodes": [[["conv3_3_x2_zeropadding", 0, 0, {}]]]}, {"name": "concat_3_3", "class_name": "Concatenate", "config": {"name": "concat_3_3", "trainable": true, "axis": 3}, "inbound_nodes": [[["concat_3_2", 0, 0, {}], ["conv3_3_x2", 0, 0, {}]]]}, {"name": "conv3_4_x1_bn", "class_name": "BatchNormalization", "config": {"name": "conv3_4_x1_bn", "trainable": true, "axis": 3, "momentum": 0.99, "epsilon": 1.1e-05, "center": true, "scale": true, "beta_initializer": {"class_name": "Zeros", "config": {}}, "gamma_initializer": {"class_name": "Ones", "config": {}}, "moving_mean_initializer": {"class_name": "Zeros", "config": {}}, "moving_variance_initializer": {"class_name": "Ones", "config": {}}, "beta_regularizer": null, "gamma_regularizer": null, "beta_constraint": null, "gamma_constraint": null}, "inbound_nodes": [[["concat_3_3", 0, 0, {}]]]}, {"name": "conv3_4_x1_scale", "class_name": "Scale", "config": {"name": "conv3_4_x1_scale", "trainable": true, "momentum": 0.9, "axis": 3}, "inbound_nodes": [[["conv3_4_x1_bn", 0, 0, {}]]]}, {"name": "relu3_4_x1", "class_name": "Activation", "config": {"name": "relu3_4_x1", "trainable": true, "activation": "relu"}, "inbound_nodes": [[["conv3_4_x1_scale", 0, 0, {}]]]}, {"name": "conv3_4_x1", "class_name": "Conv2D", "config": {"name": "conv3_4_x1", "trainable": true, "filters": 128, "kernel_size": [1, 1], "strides": [1, 1], "padding": "valid", "data_format": "channels_last", "dilation_rate": [1, 1], "activation": "linear", "use_bias": false, "kernel_initializer": {"class_name": "VarianceScaling", "config": {"scale": 1.0, "mode": "fan_avg", "distribution": "uniform", "seed": null}}, "bias_initializer": {"class_name": "Zeros", "config": {}}, "kernel_regularizer": null, "bias_regularizer": null, "activity_regularizer": null, "kernel_constraint": null, "bias_constraint": null}, "inbound_nodes": [[["relu3_4_x1", 0, 0, {}]]]}, {"name": "conv3_4_x2_bn", "class_name": "BatchNormalization", "config": {"name": "conv3_4_x2_bn", "trainable": true, "axis": 3, "momentum": 0.99, "epsilon": 1.1e-05, "center": true, "scale": true, "beta_initializer": {"class_name": "Zeros", "config": {}}, "gamma_initializer": {"class_name": "Ones", "config": {}}, "moving_mean_initializer": {"class_name": "Zeros", "config": {}}, "moving_variance_initializer": {"class_name": "Ones", "config": {}}, "beta_regularizer": null, "gamma_regularizer": null, "beta_constraint": null, "gamma_constraint": null}, "inbound_nodes": [[["conv3_4_x1", 0, 0, {}]]]}, {"name": "conv3_4_x2_scale", "class_name": "Scale", "config": {"name": "conv3_4_x2_scale", "trainable": true, "momentum": 0.9, "axis": 3}, "inbound_nodes": [[["conv3_4_x2_bn", 0, 0, {}]]]}, {"name": "relu3_4_x2", "class_name": "Activation", "config": {"name": "relu3_4_x2", "trainable": true, "activation": "relu"}, "inbound_nodes": [[["conv3_4_x2_scale", 0, 0, {}]]]}, {"name": "conv3_4_x2_zeropadding", "class_name": "ZeroPadding2D", "config": {"name": "conv3_4_x2_zeropadding", "trainable": true, "padding": [[1, 1], [1, 1]], "data_format": "channels_last"}, "inbound_nodes": [[["relu3_4_x2", 0, 0, {}]]]}, {"name": "conv3_4_x2", "class_name": "Conv2D", "config": {"name": "conv3_4_x2", "trainable": true, "filters": 32, "kernel_size": [3, 3], "strides": [1, 1], "padding": "valid", "data_format": "channels_last", "dilation_rate": [1, 1], "activation": "linear", "use_bias": false, "kernel_initializer": {"class_name": "VarianceScaling", "config": {"scale": 1.0, "mode": "fan_avg", "distribution": "uniform", "seed": null}}, "bias_initializer": {"class_name": "Zeros", "config": {}}, "kernel_regularizer": null, "bias_regularizer": null, "activity_regularizer": null, "kernel_constraint": null, "bias_constraint": null}, "inbound_nodes": [[["conv3_4_x2_zeropadding", 0, 0, {}]]]}, {"name": "concat_3_4", "class_name": "Concatenate", "config": {"name": "concat_3_4", "trainable": true, "axis": 3}, "inbound_nodes": [[["concat_3_3", 0, 0, {}], ["conv3_4_x2", 0, 0, {}]]]}, {"name": "conv3_5_x1_bn", "class_name": "BatchNormalization", "config": {"name": "conv3_5_x1_bn", "trainable": true, "axis": 3, "momentum": 0.99, "epsilon": 1.1e-05, "center": true, "scale": true, "beta_initializer": {"class_name": "Zeros", "config": {}}, "gamma_initializer": {"class_name": "Ones", "config": {}}, "moving_mean_initializer": {"class_name": "Zeros", "config": {}}, "moving_variance_initializer": {"class_name": "Ones", "config": {}}, "beta_regularizer": null, "gamma_regularizer": null, "beta_constraint": null, "gamma_constraint": null}, "inbound_nodes": [[["concat_3_4", 0, 0, {}]]]}, {"name": "conv3_5_x1_scale", "class_name": "Scale", "config": {"name": "conv3_5_x1_scale", "trainable": true, "momentum": 0.9, "axis": 3}, "inbound_nodes": [[["conv3_5_x1_bn", 0, 0, {}]]]}, {"name": "relu3_5_x1", "class_name": "Activation", "config": {"name": "relu3_5_x1", "trainable": true, "activation": "relu"}, "inbound_nodes": [[["conv3_5_x1_scale", 0, 0, {}]]]}, {"name": "conv3_5_x1", "class_name": "Conv2D", "config": {"name": "conv3_5_x1", "trainable": true, "filters": 128, "kernel_size": [1, 1], "strides": [1, 1], "padding": "valid", "data_format": "channels_last", "dilation_rate": [1, 1], "activation": "linear", "use_bias": false, "kernel_initializer": {"class_name": "VarianceScaling", "config": {"scale": 1.0, "mode": "fan_avg", "distribution": "uniform", "seed": null}}, "bias_initializer": {"class_name": "Zeros", "config": {}}, "kernel_regularizer": null, "bias_regularizer": null, "activity_regularizer": null, "kernel_constraint": null, "bias_constraint": null}, "inbound_nodes": [[["relu3_5_x1", 0, 0, {}]]]}, {"name": "conv3_5_x2_bn", "class_name": "BatchNormalization", "config": {"name": "conv3_5_x2_bn", "trainable": true, "axis": 3, "momentum": 0.99, "epsilon": 1.1e-05, "center": true, "scale": true, "beta_initializer": {"class_name": "Zeros", "config": {}}, "gamma_initializer": {"class_name": "Ones", "config": {}}, "moving_mean_initializer": {"class_name": "Zeros", "config": {}}, "moving_variance_initializer": {"class_name": "Ones", "config": {}}, "beta_regularizer": null, "gamma_regularizer": null, "beta_constraint": null, "gamma_constraint": null}, "inbound_nodes": [[["conv3_5_x1", 0, 0, {}]]]}, {"name": "conv3_5_x2_scale", "class_name": "Scale", "config": {"name": "conv3_5_x2_scale", "trainable": true, "momentum": 0.9, "axis": 3}, "inbound_nodes": [[["conv3_5_x2_bn", 0, 0, {}]]]}, {"name": "relu3_5_x2", "class_name": "Activation", "config": {"name": "relu3_5_x2", "trainable": true, "activation": "relu"}, "inbound_nodes": [[["conv3_5_x2_scale", 0, 0, {}]]]}, {"name": "conv3_5_x2_zeropadding", "class_name": "ZeroPadding2D", "config": {"name": "conv3_5_x2_zeropadding", "trainable": true, "padding": [[1, 1], [1, 1]], "data_format": "channels_last"}, "inbound_nodes": [[["relu3_5_x2", 0, 0, {}]]]}, {"name": "conv3_5_x2", "class_name": "Conv2D", "config": {"name": "conv3_5_x2", "trainable": true, "filters": 32, "kernel_size": [3, 3], "strides": [1, 1], "padding": "valid", "data_format": "channels_last", "dilation_rate": [1, 1], "activation": "linear", "use_bias": false, "kernel_initializer": {"class_name": "VarianceScaling", "config": {"scale": 1.0, "mode": "fan_avg", "distribution": "uniform", "seed": null}}, "bias_initializer": {"class_name": "Zeros", "config": {}}, "kernel_regularizer": null, "bias_regularizer": null, "activity_regularizer": null, "kernel_constraint": null, "bias_constraint": null}, "inbound_nodes": [[["conv3_5_x2_zeropadding", 0, 0, {}]]]}, {"name": "concat_3_5", "class_name": "Concatenate", "config": {"name": "concat_3_5", "trainable": true, "axis": 3}, "inbound_nodes": [[["concat_3_4", 0, 0, {}], ["conv3_5_x2", 0, 0, {}]]]}, {"name": "conv3_6_x1_bn", "class_name": "BatchNormalization", "config": {"name": "conv3_6_x1_bn", "trainable": true, "axis": 3, "momentum": 0.99, "epsilon": 1.1e-05, "center": true, "scale": true, "beta_initializer": {"class_name": "Zeros", "config": {}}, "gamma_initializer": {"class_name": "Ones", "config": {}}, "moving_mean_initializer": {"class_name": "Zeros", "config": {}}, "moving_variance_initializer": {"class_name": "Ones", "config": {}}, "beta_regularizer": null, "gamma_regularizer": null, "beta_constraint": null, "gamma_constraint": null}, "inbound_nodes": [[["concat_3_5", 0, 0, {}]]]}, {"name": "conv3_6_x1_scale", "class_name": "Scale", "config": {"name": "conv3_6_x1_scale", "trainable": true, "momentum": 0.9, "axis": 3}, "inbound_nodes": [[["conv3_6_x1_bn", 0, 0, {}]]]}, {"name": "relu3_6_x1", "class_name": "Activation", "config": {"name": "relu3_6_x1", "trainable": true, "activation": "relu"}, "inbound_nodes": [[["conv3_6_x1_scale", 0, 0, {}]]]}, {"name": "conv3_6_x1", "class_name": "Conv2D", "config": {"name": "conv3_6_x1", "trainable": true, "filters": 128, "kernel_size": [1, 1], "strides": [1, 1], "padding": "valid", "data_format": "channels_last", "dilation_rate": [1, 1], "activation": "linear", "use_bias": false, "kernel_initializer": {"class_name": "VarianceScaling", "config": {"scale": 1.0, "mode": "fan_avg", "distribution": "uniform", "seed": null}}, "bias_initializer": {"class_name": "Zeros", "config": {}}, "kernel_regularizer": null, "bias_regularizer": null, "activity_regularizer": null, "kernel_constraint": null, "bias_constraint": null}, "inbound_nodes": [[["relu3_6_x1", 0, 0, {}]]]}, {"name": "conv3_6_x2_bn", "class_name": "BatchNormalization", "config": {"name": "conv3_6_x2_bn", "trainable": true, "axis": 3, "momentum": 0.99, "epsilon": 1.1e-05, "center": true, "scale": true, "beta_initializer": {"class_name": "Zeros", "config": {}}, "gamma_initializer": {"class_name": "Ones", "config": {}}, "moving_mean_initializer": {"class_name": "Zeros", "config": {}}, "moving_variance_initializer": {"class_name": "Ones", "config": {}}, "beta_regularizer": null, "gamma_regularizer": null, "beta_constraint": null, "gamma_constraint": null}, "inbound_nodes": [[["conv3_6_x1", 0, 0, {}]]]}, {"name": "conv3_6_x2_scale", "class_name": "Scale", "config": {"name": "conv3_6_x2_scale", "trainable": true, "momentum": 0.9, "axis": 3}, "inbound_nodes": [[["conv3_6_x2_bn", 0, 0, {}]]]}, {"name": "relu3_6_x2", "class_name": "Activation", "config": {"name": "relu3_6_x2", "trainable": true, "activation": "relu"}, "inbound_nodes": [[["conv3_6_x2_scale", 0, 0, {}]]]}, {"name": "conv3_6_x2_zeropadding", "class_name": "ZeroPadding2D", "config": {"name": "conv3_6_x2_zeropadding", "trainable": true, "padding": [[1, 1], [1, 1]], "data_format": "channels_last"}, "inbound_nodes": [[["relu3_6_x2", 0, 0, {}]]]}, {"name": "conv3_6_x2", "class_name": "Conv2D", "config": {"name": "conv3_6_x2", "trainable": true, "filters": 32, "kernel_size": [3, 3], "strides": [1, 1], "padding": "valid", "data_format": "channels_last", "dilation_rate": [1, 1], "activation": "linear", "use_bias": false, "kernel_initializer": {"class_name": "VarianceScaling", "config": {"scale": 1.0, "mode": "fan_avg", "distribution": "uniform", "seed": null}}, "bias_initializer": {"class_name": "Zeros", "config": {}}, "kernel_regularizer": null, "bias_regularizer": null, "activity_regularizer": null, "kernel_constraint": null, "bias_constraint": null}, "inbound_nodes": [[["conv3_6_x2_zeropadding", 0, 0, {}]]]}, {"name": "concat_3_6", "class_name": "Concatenate", "config": {"name": "concat_3_6", "trainable": true, "axis": 3}, "inbound_nodes": [[["concat_3_5", 0, 0, {}], ["conv3_6_x2", 0, 0, {}]]]}, {"name": "conv3_7_x1_bn", "class_name": "BatchNormalization", "config": {"name": "conv3_7_x1_bn", "trainable": true, "axis": 3, "momentum": 0.99, "epsilon": 1.1e-05, "center": true, "scale": true, "beta_initializer": {"class_name": "Zeros", "config": {}}, "gamma_initializer": {"class_name": "Ones", "config": {}}, "moving_mean_initializer": {"class_name": "Zeros", "config": {}}, "moving_variance_initializer": {"class_name": "Ones", "config": {}}, "beta_regularizer": null, "gamma_regularizer": null, "beta_constraint": null, "gamma_constraint": null}, "inbound_nodes": [[["concat_3_6", 0, 0, {}]]]}, {"name": "conv3_7_x1_scale", "class_name": "Scale", "config": {"name": "conv3_7_x1_scale", "trainable": true, "momentum": 0.9, "axis": 3}, "inbound_nodes": [[["conv3_7_x1_bn", 0, 0, {}]]]}, {"name": "relu3_7_x1", "class_name": "Activation", "config": {"name": "relu3_7_x1", "trainable": true, "activation": "relu"}, "inbound_nodes": [[["conv3_7_x1_scale", 0, 0, {}]]]}, {"name": "conv3_7_x1", "class_name": "Conv2D", "config": {"name": "conv3_7_x1", "trainable": true, "filters": 128, "kernel_size": [1, 1], "strides": [1, 1], "padding": "valid", "data_format": "channels_last", "dilation_rate": [1, 1], "activation": "linear", "use_bias": false, "kernel_initializer": {"class_name": "VarianceScaling", "config": {"scale": 1.0, "mode": "fan_avg", "distribution": "uniform", "seed": null}}, "bias_initializer": {"class_name": "Zeros", "config": {}}, "kernel_regularizer": null, "bias_regularizer": null, "activity_regularizer": null, "kernel_constraint": null, "bias_constraint": null}, "inbound_nodes": [[["relu3_7_x1", 0, 0, {}]]]}, {"name": "conv3_7_x2_bn", "class_name": "BatchNormalization", "config": {"name": "conv3_7_x2_bn", "trainable": true, "axis": 3, "momentum": 0.99, "epsilon": 1.1e-05, "center": true, "scale": true, "beta_initializer": {"class_name": "Zeros", "config": {}}, "gamma_initializer": {"class_name": "Ones", "config": {}}, "moving_mean_initializer": {"class_name": "Zeros", "config": {}}, "moving_variance_initializer": {"class_name": "Ones", "config": {}}, "beta_regularizer": null, "gamma_regularizer": null, "beta_constraint": null, "gamma_constraint": null}, "inbound_nodes": [[["conv3_7_x1", 0, 0, {}]]]}, {"name": "conv3_7_x2_scale", "class_name": "Scale", "config": {"name": "conv3_7_x2_scale", "trainable": true, "momentum": 0.9, "axis": 3}, "inbound_nodes": [[["conv3_7_x2_bn", 0, 0, {}]]]}, {"name": "relu3_7_x2", "class_name": "Activation", "config": {"name": "relu3_7_x2", "trainable": true, "activation": "relu"}, "inbound_nodes": [[["conv3_7_x2_scale", 0, 0, {}]]]}, {"name": "conv3_7_x2_zeropadding", "class_name": "ZeroPadding2D", "config": {"name": "conv3_7_x2_zeropadding", "trainable": true, "padding": [[1, 1], [1, 1]], "data_format": "channels_last"}, "inbound_nodes": [[["relu3_7_x2", 0, 0, {}]]]}, {"name": "conv3_7_x2", "class_name": "Conv2D", "config": {"name": "conv3_7_x2", "trainable": true, "filters": 32, "kernel_size": [3, 3], "strides": [1, 1], "padding": "valid", "data_format": "channels_last", "dilation_rate": [1, 1], "activation": "linear", "use_bias": false, "kernel_initializer": {"class_name": "VarianceScaling", "config": {"scale": 1.0, "mode": "fan_avg", "distribution": "uniform", "seed": null}}, "bias_initializer": {"class_name": "Zeros", "config": {}}, "kernel_regularizer": null, "bias_regularizer": null, "activity_regularizer": null, "kernel_constraint": null, "bias_constraint": null}, "inbound_nodes": [[["conv3_7_x2_zeropadding", 0, 0, {}]]]}, {"name": "concat_3_7", "class_name": "Concatenate", "config": {"name": "concat_3_7", "trainable": true, "axis": 3}, "inbound_nodes": [[["concat_3_6", 0, 0, {}], ["conv3_7_x2", 0, 0, {}]]]}, {"name": "conv3_8_x1_bn", "class_name": "BatchNormalization", "config": {"name": "conv3_8_x1_bn", "trainable": true, "axis": 3, "momentum": 0.99, "epsilon": 1.1e-05, "center": true, "scale": true, "beta_initializer": {"class_name": "Zeros", "config": {}}, "gamma_initializer": {"class_name": "Ones", "config": {}}, "moving_mean_initializer": {"class_name": "Zeros", "config": {}}, "moving_variance_initializer": {"class_name": "Ones", "config": {}}, "beta_regularizer": null, "gamma_regularizer": null, "beta_constraint": null, "gamma_constraint": null}, "inbound_nodes": [[["concat_3_7", 0, 0, {}]]]}, {"name": "conv3_8_x1_scale", "class_name": "Scale", "config": {"name": "conv3_8_x1_scale", "trainable": true, "momentum": 0.9, "axis": 3}, "inbound_nodes": [[["conv3_8_x1_bn", 0, 0, {}]]]}, {"name": "relu3_8_x1", "class_name": "Activation", "config": {"name": "relu3_8_x1", "trainable": true, "activation": "relu"}, "inbound_nodes": [[["conv3_8_x1_scale", 0, 0, {}]]]}, {"name": "conv3_8_x1", "class_name": "Conv2D", "config": {"name": "conv3_8_x1", "trainable": true, "filters": 128, "kernel_size": [1, 1], "strides": [1, 1], "padding": "valid", "data_format": "channels_last", "dilation_rate": [1, 1], "activation": "linear", "use_bias": false, "kernel_initializer": {"class_name": "VarianceScaling", "config": {"scale": 1.0, "mode": "fan_avg", "distribution": "uniform", "seed": null}}, "bias_initializer": {"class_name": "Zeros", "config": {}}, "kernel_regularizer": null, "bias_regularizer": null, "activity_regularizer": null, "kernel_constraint": null, "bias_constraint": null}, "inbound_nodes": [[["relu3_8_x1", 0, 0, {}]]]}, {"name": "conv3_8_x2_bn", "class_name": "BatchNormalization", "config": {"name": "conv3_8_x2_bn", "trainable": true, "axis": 3, "momentum": 0.99, "epsilon": 1.1e-05, "center": true, "scale": true, "beta_initializer": {"class_name": "Zeros", "config": {}}, "gamma_initializer": {"class_name": "Ones", "config": {}}, "moving_mean_initializer": {"class_name": "Zeros", "config": {}}, "moving_variance_initializer": {"class_name": "Ones", "config": {}}, "beta_regularizer": null, "gamma_regularizer": null, "beta_constraint": null, "gamma_constraint": null}, "inbound_nodes": [[["conv3_8_x1", 0, 0, {}]]]}, {"name": "conv3_8_x2_scale", "class_name": "Scale", "config": {"name": "conv3_8_x2_scale", "trainable": true, "momentum": 0.9, "axis": 3}, "inbound_nodes": [[["conv3_8_x2_bn", 0, 0, {}]]]}, {"name": "relu3_8_x2", "class_name": "Activation", "config": {"name": "relu3_8_x2", "trainable": true, "activation": "relu"}, "inbound_nodes": [[["conv3_8_x2_scale", 0, 0, {}]]]}, {"name": "conv3_8_x2_zeropadding", "class_name": "ZeroPadding2D", "config": {"name": "conv3_8_x2_zeropadding", "trainable": true, "padding": [[1, 1], [1, 1]], "data_format": "channels_last"}, "inbound_nodes": [[["relu3_8_x2", 0, 0, {}]]]}, {"name": "conv3_8_x2", "class_name": "Conv2D", "config": {"name": "conv3_8_x2", "trainable": true, "filters": 32, "kernel_size": [3, 3], "strides": [1, 1], "padding": "valid", "data_format": "channels_last", "dilation_rate": [1, 1], "activation": "linear", "use_bias": false, "kernel_initializer": {"class_name": "VarianceScaling", "config": {"scale": 1.0, "mode": "fan_avg", "distribution": "uniform", "seed": null}}, "bias_initializer": {"class_name": "Zeros", "config": {}}, "kernel_regularizer": null, "bias_regularizer": null, "activity_regularizer": null, "kernel_constraint": null, "bias_constraint": null}, "inbound_nodes": [[["conv3_8_x2_zeropadding", 0, 0, {}]]]}, {"name": "concat_3_8", "class_name": "Concatenate", "config": {"name": "concat_3_8", "trainable": true, "axis": 3}, "inbound_nodes": [[["concat_3_7", 0, 0, {}], ["conv3_8_x2", 0, 0, {}]]]}, {"name": "conv3_9_x1_bn", "class_name": "BatchNormalization", "config": {"name": "conv3_9_x1_bn", "trainable": true, "axis": 3, "momentum": 0.99, "epsilon": 1.1e-05, "center": true, "scale": true, "beta_initializer": {"class_name": "Zeros", "config": {}}, "gamma_initializer": {"class_name": "Ones", "config": {}}, "moving_mean_initializer": {"class_name": "Zeros", "config": {}}, "moving_variance_initializer": {"class_name": "Ones", "config": {}}, "beta_regularizer": null, "gamma_regularizer": null, "beta_constraint": null, "gamma_constraint": null}, "inbound_nodes": [[["concat_3_8", 0, 0, {}]]]}, {"name": "conv3_9_x1_scale", "class_name": "Scale", "config": {"name": "conv3_9_x1_scale", "trainable": true, "momentum": 0.9, "axis": 3}, "inbound_nodes": [[["conv3_9_x1_bn", 0, 0, {}]]]}, {"name": "relu3_9_x1", "class_name": "Activation", "config": {"name": "relu3_9_x1", "trainable": true, "activation": "relu"}, "inbound_nodes": [[["conv3_9_x1_scale", 0, 0, {}]]]}, {"name": "conv3_9_x1", "class_name": "Conv2D", "config": {"name": "conv3_9_x1", "trainable": true, "filters": 128, "kernel_size": [1, 1], "strides": [1, 1], "padding": "valid", "data_format": "channels_last", "dilation_rate": [1, 1], "activation": "linear", "use_bias": false, "kernel_initializer": {"class_name": "VarianceScaling", "config": {"scale": 1.0, "mode": "fan_avg", "distribution": "uniform", "seed": null}}, "bias_initializer": {"class_name": "Zeros", "config": {}}, "kernel_regularizer": null, "bias_regularizer": null, "activity_regularizer": null, "kernel_constraint": null, "bias_constraint": null}, "inbound_nodes": [[["relu3_9_x1", 0, 0, {}]]]}, {"name": "conv3_9_x2_bn", "class_name": "BatchNormalization", "config": {"name": "conv3_9_x2_bn", "trainable": true, "axis": 3, "momentum": 0.99, "epsilon": 1.1e-05, "center": true, "scale": true, "beta_initializer": {"class_name": "Zeros", "config": {}}, "gamma_initializer": {"class_name": "Ones", "config": {}}, "moving_mean_initializer": {"class_name": "Zeros", "config": {}}, "moving_variance_initializer": {"class_name": "Ones", "config": {}}, "beta_regularizer": null, "gamma_regularizer": null, "beta_constraint": null, "gamma_constraint": null}, "inbound_nodes": [[["conv3_9_x1", 0, 0, {}]]]}, {"name": "conv3_9_x2_scale", "class_name": "Scale", "config": {"name": "conv3_9_x2_scale", "trainable": true, "momentum": 0.9, "axis": 3}, "inbound_nodes": [[["conv3_9_x2_bn", 0, 0, {}]]]}, {"name": "relu3_9_x2", "class_name": "Activation", "config": {"name": "relu3_9_x2", "trainable": true, "activation": "relu"}, "inbound_nodes": [[["conv3_9_x2_scale", 0, 0, {}]]]}, {"name": "conv3_9_x2_zeropadding", "class_name": "ZeroPadding2D", "config": {"name": "conv3_9_x2_zeropadding", "trainable": true, "padding": [[1, 1], [1, 1]], "data_format": "channels_last"}, "inbound_nodes": [[["relu3_9_x2", 0, 0, {}]]]}, {"name": "conv3_9_x2", "class_name": "Conv2D", "config": {"name": "conv3_9_x2", "trainable": true, "filters": 32, "kernel_size": [3, 3], "strides": [1, 1], "padding": "valid", "data_format": "channels_last", "dilation_rate": [1, 1], "activation": "linear", "use_bias": false, "kernel_initializer": {"class_name": "VarianceScaling", "config": {"scale": 1.0, "mode": "fan_avg", "distribution": "uniform", "seed": null}}, "bias_initializer": {"class_name": "Zeros", "config": {}}, "kernel_regularizer": null, "bias_regularizer": null, "activity_regularizer": null, "kernel_constraint": null, "bias_constraint": null}, "inbound_nodes": [[["conv3_9_x2_zeropadding", 0, 0, {}]]]}, {"name": "concat_3_9", "class_name": "Concatenate", "config": {"name": "concat_3_9", "trainable": true, "axis": 3}, "inbound_nodes": [[["concat_3_8", 0, 0, {}], ["conv3_9_x2", 0, 0, {}]]]}, {"name": "conv3_10_x1_bn", "class_name": "BatchNormalization", "config": {"name": "conv3_10_x1_bn", "trainable": true, "axis": 3, "momentum": 0.99, "epsilon": 1.1e-05, "center": true, "scale": true, "beta_initializer": {"class_name": "Zeros", "config": {}}, "gamma_initializer": {"class_name": "Ones", "config": {}}, "moving_mean_initializer": {"class_name": "Zeros", "config": {}}, "moving_variance_initializer": {"class_name": "Ones", "config": {}}, "beta_regularizer": null, "gamma_regularizer": null, "beta_constraint": null, "gamma_constraint": null}, "inbound_nodes": [[["concat_3_9", 0, 0, {}]]]}, {"name": "conv3_10_x1_scale", "class_name": "Scale", "config": {"name": "conv3_10_x1_scale", "trainable": true, "momentum": 0.9, "axis": 3}, "inbound_nodes": [[["conv3_10_x1_bn", 0, 0, {}]]]}, {"name": "relu3_10_x1", "class_name": "Activation", "config": {"name": "relu3_10_x1", "trainable": true, "activation": "relu"}, "inbound_nodes": [[["conv3_10_x1_scale", 0, 0, {}]]]}, {"name": "conv3_10_x1", "class_name": "Conv2D", "config": {"name": "conv3_10_x1", "trainable": true, "filters": 128, "kernel_size": [1, 1], "strides": [1, 1], "padding": "valid", "data_format": "channels_last", "dilation_rate": [1, 1], "activation": "linear", "use_bias": false, "kernel_initializer": {"class_name": "VarianceScaling", "config": {"scale": 1.0, "mode": "fan_avg", "distribution": "uniform", "seed": null}}, "bias_initializer": {"class_name": "Zeros", "config": {}}, "kernel_regularizer": null, "bias_regularizer": null, "activity_regularizer": null, "kernel_constraint": null, "bias_constraint": null}, "inbound_nodes": [[["relu3_10_x1", 0, 0, {}]]]}, {"name": "conv3_10_x2_bn", "class_name": "BatchNormalization", "config": {"name": "conv3_10_x2_bn", "trainable": true, "axis": 3, "momentum": 0.99, "epsilon": 1.1e-05, "center": true, "scale": true, "beta_initializer": {"class_name": "Zeros", "config": {}}, "gamma_initializer": {"class_name": "Ones", "config": {}}, "moving_mean_initializer": {"class_name": "Zeros", "config": {}}, "moving_variance_initializer": {"class_name": "Ones", "config": {}}, "beta_regularizer": null, "gamma_regularizer": null, "beta_constraint": null, "gamma_constraint": null}, "inbound_nodes": [[["conv3_10_x1", 0, 0, {}]]]}, {"name": "conv3_10_x2_scale", "class_name": "Scale", "config": {"name": "conv3_10_x2_scale", "trainable": true, "momentum": 0.9, "axis": 3}, "inbound_nodes": [[["conv3_10_x2_bn", 0, 0, {}]]]}, {"name": "relu3_10_x2", "class_name": "Activation", "config": {"name": "relu3_10_x2", "trainable": true, "activation": "relu"}, "inbound_nodes": [[["conv3_10_x2_scale", 0, 0, {}]]]}, {"name": "conv3_10_x2_zeropadding", "class_name": "ZeroPadding2D", "config": {"name": "conv3_10_x2_zeropadding", "trainable": true, "padding": [[1, 1], [1, 1]], "data_format": "channels_last"}, "inbound_nodes": [[["relu3_10_x2", 0, 0, {}]]]}, {"name": "conv3_10_x2", "class_name": "Conv2D", "config": {"name": "conv3_10_x2", "trainable": true, "filters": 32, "kernel_size": [3, 3], "strides": [1, 1], "padding": "valid", "data_format": "channels_last", "dilation_rate": [1, 1], "activation": "linear", "use_bias": false, "kernel_initializer": {"class_name": "VarianceScaling", "config": {"scale": 1.0, "mode": "fan_avg", "distribution": "uniform", "seed": null}}, "bias_initializer": {"class_name": "Zeros", "config": {}}, "kernel_regularizer": null, "bias_regularizer": null, "activity_regularizer": null, "kernel_constraint": null, "bias_constraint": null}, "inbound_nodes": [[["conv3_10_x2_zeropadding", 0, 0, {}]]]}, {"name": "concat_3_10", "class_name": "Concatenate", "config": {"name": "concat_3_10", "trainable": true, "axis": 3}, "inbound_nodes": [[["concat_3_9", 0, 0, {}], ["conv3_10_x2", 0, 0, {}]]]}, {"name": "conv3_11_x1_bn", "class_name": "BatchNormalization", "config": {"name": "conv3_11_x1_bn", "trainable": true, "axis": 3, "momentum": 0.99, "epsilon": 1.1e-05, "center": true, "scale": true, "beta_initializer": {"class_name": "Zeros", "config": {}}, "gamma_initializer": {"class_name": "Ones", "config": {}}, "moving_mean_initializer": {"class_name": "Zeros", "config": {}}, "moving_variance_initializer": {"class_name": "Ones", "config": {}}, "beta_regularizer": null, "gamma_regularizer": null, "beta_constraint": null, "gamma_constraint": null}, "inbound_nodes": [[["concat_3_10", 0, 0, {}]]]}, {"name": "conv3_11_x1_scale", "class_name": "Scale", "config": {"name": "conv3_11_x1_scale", "trainable": true, "momentum": 0.9, "axis": 3}, "inbound_nodes": [[["conv3_11_x1_bn", 0, 0, {}]]]}, {"name": "relu3_11_x1", "class_name": "Activation", "config": {"name": "relu3_11_x1", "trainable": true, "activation": "relu"}, "inbound_nodes": [[["conv3_11_x1_scale", 0, 0, {}]]]}, {"name": "conv3_11_x1", "class_name": "Conv2D", "config": {"name": "conv3_11_x1", "trainable": true, "filters": 128, "kernel_size": [1, 1], "strides": [1, 1], "padding": "valid", "data_format": "channels_last", "dilation_rate": [1, 1], "activation": "linear", "use_bias": false, "kernel_initializer": {"class_name": "VarianceScaling", "config": {"scale": 1.0, "mode": "fan_avg", "distribution": "uniform", "seed": null}}, "bias_initializer": {"class_name": "Zeros", "config": {}}, "kernel_regularizer": null, "bias_regularizer": null, "activity_regularizer": null, "kernel_constraint": null, "bias_constraint": null}, "inbound_nodes": [[["relu3_11_x1", 0, 0, {}]]]}, {"name": "conv3_11_x2_bn", "class_name": "BatchNormalization", "config": {"name": "conv3_11_x2_bn", "trainable": true, "axis": 3, "momentum": 0.99, "epsilon": 1.1e-05, "center": true, "scale": true, "beta_initializer": {"class_name": "Zeros", "config": {}}, "gamma_initializer": {"class_name": "Ones", "config": {}}, "moving_mean_initializer": {"class_name": "Zeros", "config": {}}, "moving_variance_initializer": {"class_name": "Ones", "config": {}}, "beta_regularizer": null, "gamma_regularizer": null, "beta_constraint": null, "gamma_constraint": null}, "inbound_nodes": [[["conv3_11_x1", 0, 0, {}]]]}, {"name": "conv3_11_x2_scale", "class_name": "Scale", "config": {"name": "conv3_11_x2_scale", "trainable": true, "momentum": 0.9, "axis": 3}, "inbound_nodes": [[["conv3_11_x2_bn", 0, 0, {}]]]}, {"name": "relu3_11_x2", "class_name": "Activation", "config": {"name": "relu3_11_x2", "trainable": true, "activation": "relu"}, "inbound_nodes": [[["conv3_11_x2_scale", 0, 0, {}]]]}, {"name": "conv3_11_x2_zeropadding", "class_name": "ZeroPadding2D", "config": {"name": "conv3_11_x2_zeropadding", "trainable": true, "padding": [[1, 1], [1, 1]], "data_format": "channels_last"}, "inbound_nodes": [[["relu3_11_x2", 0, 0, {}]]]}, {"name": "conv3_11_x2", "class_name": "Conv2D", "config": {"name": "conv3_11_x2", "trainable": true, "filters": 32, "kernel_size": [3, 3], "strides": [1, 1], "padding": "valid", "data_format": "channels_last", "dilation_rate": [1, 1], "activation": "linear", "use_bias": false, "kernel_initializer": {"class_name": "VarianceScaling", "config": {"scale": 1.0, "mode": "fan_avg", "distribution": "uniform", "seed": null}}, "bias_initializer": {"class_name": "Zeros", "config": {}}, "kernel_regularizer": null, "bias_regularizer": null, "activity_regularizer": null, "kernel_constraint": null, "bias_constraint": null}, "inbound_nodes": [[["conv3_11_x2_zeropadding", 0, 0, {}]]]}, {"name": "concat_3_11", "class_name": "Concatenate", "config": {"name": "concat_3_11", "trainable": true, "axis": 3}, "inbound_nodes": [[["concat_3_10", 0, 0, {}], ["conv3_11_x2", 0, 0, {}]]]}, {"name": "conv3_12_x1_bn", "class_name": "BatchNormalization", "config": {"name": "conv3_12_x1_bn", "trainable": true, "axis": 3, "momentum": 0.99, "epsilon": 1.1e-05, "center": true, "scale": true, "beta_initializer": {"class_name": "Zeros", "config": {}}, "gamma_initializer": {"class_name": "Ones", "config": {}}, "moving_mean_initializer": {"class_name": "Zeros", "config": {}}, "moving_variance_initializer": {"class_name": "Ones", "config": {}}, "beta_regularizer": null, "gamma_regularizer": null, "beta_constraint": null, "gamma_constraint": null}, "inbound_nodes": [[["concat_3_11", 0, 0, {}]]]}, {"name": "conv3_12_x1_scale", "class_name": "Scale", "config": {"name": "conv3_12_x1_scale", "trainable": true, "momentum": 0.9, "axis": 3}, "inbound_nodes": [[["conv3_12_x1_bn", 0, 0, {}]]]}, {"name": "relu3_12_x1", "class_name": "Activation", "config": {"name": "relu3_12_x1", "trainable": true, "activation": "relu"}, "inbound_nodes": [[["conv3_12_x1_scale", 0, 0, {}]]]}, {"name": "conv3_12_x1", "class_name": "Conv2D", "config": {"name": "conv3_12_x1", "trainable": true, "filters": 128, "kernel_size": [1, 1], "strides": [1, 1], "padding": "valid", "data_format": "channels_last", "dilation_rate": [1, 1], "activation": "linear", "use_bias": false, "kernel_initializer": {"class_name": "VarianceScaling", "config": {"scale": 1.0, "mode": "fan_avg", "distribution": "uniform", "seed": null}}, "bias_initializer": {"class_name": "Zeros", "config": {}}, "kernel_regularizer": null, "bias_regularizer": null, "activity_regularizer": null, "kernel_constraint": null, "bias_constraint": null}, "inbound_nodes": [[["relu3_12_x1", 0, 0, {}]]]}, {"name": "conv3_12_x2_bn", "class_name": "BatchNormalization", "config": {"name": "conv3_12_x2_bn", "trainable": true, "axis": 3, "momentum": 0.99, "epsilon": 1.1e-05, "center": true, "scale": true, "beta_initializer": {"class_name": "Zeros", "config": {}}, "gamma_initializer": {"class_name": "Ones", "config": {}}, "moving_mean_initializer": {"class_name": "Zeros", "config": {}}, "moving_variance_initializer": {"class_name": "Ones", "config": {}}, "beta_regularizer": null, "gamma_regularizer": null, "beta_constraint": null, "gamma_constraint": null}, "inbound_nodes": [[["conv3_12_x1", 0, 0, {}]]]}, {"name": "conv3_12_x2_scale", "class_name": "Scale", "config": {"name": "conv3_12_x2_scale", "trainable": true, "momentum": 0.9, "axis": 3}, "inbound_nodes": [[["conv3_12_x2_bn", 0, 0, {}]]]}, {"name": "relu3_12_x2", "class_name": "Activation", "config": {"name": "relu3_12_x2", "trainable": true, "activation": "relu"}, "inbound_nodes": [[["conv3_12_x2_scale", 0, 0, {}]]]}, {"name": "conv3_12_x2_zeropadding", "class_name": "ZeroPadding2D", "config": {"name": "conv3_12_x2_zeropadding", "trainable": true, "padding": [[1, 1], [1, 1]], "data_format": "channels_last"}, "inbound_nodes": [[["relu3_12_x2", 0, 0, {}]]]}, {"name": "conv3_12_x2", "class_name": "Conv2D", "config": {"name": "conv3_12_x2", "trainable": true, "filters": 32, "kernel_size": [3, 3], "strides": [1, 1], "padding": "valid", "data_format": "channels_last", "dilation_rate": [1, 1], "activation": "linear", "use_bias": false, "kernel_initializer": {"class_name": "VarianceScaling", "config": {"scale": 1.0, "mode": "fan_avg", "distribution": "uniform", "seed": null}}, "bias_initializer": {"class_name": "Zeros", "config": {}}, "kernel_regularizer": null, "bias_regularizer": null, "activity_regularizer": null, "kernel_constraint": null, "bias_constraint": null}, "inbound_nodes": [[["conv3_12_x2_zeropadding", 0, 0, {}]]]}, {"name": "concat_3_12", "class_name": "Concatenate", "config": {"name": "concat_3_12", "trainable": true, "axis": 3}, "inbound_nodes": [[["concat_3_11", 0, 0, {}], ["conv3_12_x2", 0, 0, {}]]]}, {"name": "conv3_blk_bn", "class_name": "BatchNormalization", "config": {"name": "conv3_blk_bn", "trainable": true, "axis": 3, "momentum": 0.99, "epsilon": 1.1e-05, "center": true, "scale": true, "beta_initializer": {"class_name": "Zeros", "config": {}}, "gamma_initializer": {"class_name": "Ones", "config": {}}, "moving_mean_initializer": {"class_name": "Zeros", "config": {}}, "moving_variance_initializer": {"class_name": "Ones", "config": {}}, "beta_regularizer": null, "gamma_regularizer": null, "beta_constraint": null, "gamma_constraint": null}, "inbound_nodes": [[["concat_3_12", 0, 0, {}]]]}, {"name": "conv3_blk_scale", "class_name": "Scale", "config": {"name": "conv3_blk_scale", "trainable": true, "momentum": 0.9, "axis": 3}, "inbound_nodes": [[["conv3_blk_bn", 0, 0, {}]]]}, {"name": "relu3_blk", "class_name": "Activation", "config": {"name": "relu3_blk", "trainable": true, "activation": "relu"}, "inbound_nodes": [[["conv3_blk_scale", 0, 0, {}]]]}, {"name": "conv3_blk", "class_name": "Conv2D", "config": {"name": "conv3_blk", "trainable": true, "filters": 256, "kernel_size": [1, 1], "strides": [1, 1], "padding": "valid", "data_format": "channels_last", "dilation_rate": [1, 1], "activation": "linear", "use_bias": false, "kernel_initializer": {"class_name": "VarianceScaling", "config": {"scale": 1.0, "mode": "fan_avg", "distribution": "uniform", "seed": null}}, "bias_initializer": {"class_name": "Zeros", "config": {}}, "kernel_regularizer": null, "bias_regularizer": null, "activity_regularizer": null, "kernel_constraint": null, "bias_constraint": null}, "inbound_nodes": [[["relu3_blk", 0, 0, {}]]]}, {"name": "pool3", "class_name": "AveragePooling2D", "config": {"name": "pool3", "trainable": true, "pool_size": [2, 2], "padding": "valid", "strides": [2, 2], "data_format": "channels_last"}, "inbound_nodes": [[["conv3_blk", 0, 0, {}]]]}, {"name": "conv4_1_x1_bn", "class_name": "BatchNormalization", "config": {"name": "conv4_1_x1_bn", "trainable": true, "axis": 3, "momentum": 0.99, "epsilon": 1.1e-05, "center": true, "scale": true, "beta_initializer": {"class_name": "Zeros", "config": {}}, "gamma_initializer": {"class_name": "Ones", "config": {}}, "moving_mean_initializer": {"class_name": "Zeros", "config": {}}, "moving_variance_initializer": {"class_name": "Ones", "config": {}}, "beta_regularizer": null, "gamma_regularizer": null, "beta_constraint": null, "gamma_constraint": null}, "inbound_nodes": [[["pool3", 0, 0, {}]]]}, {"name": "conv4_1_x1_scale", "class_name": "Scale", "config": {"name": "conv4_1_x1_scale", "trainable": true, "momentum": 0.9, "axis": 3}, "inbound_nodes": [[["conv4_1_x1_bn", 0, 0, {}]]]}, {"name": "relu4_1_x1", "class_name": "Activation", "config": {"name": "relu4_1_x1", "trainable": true, "activation": "relu"}, "inbound_nodes": [[["conv4_1_x1_scale", 0, 0, {}]]]}, {"name": "conv4_1_x1", "class_name": "Conv2D", "config": {"name": "conv4_1_x1", "trainable": true, "filters": 128, "kernel_size": [1, 1], "strides": [1, 1], "padding": "valid", "data_format": "channels_last", "dilation_rate": [1, 1], "activation": "linear", "use_bias": false, "kernel_initializer": {"class_name": "VarianceScaling", "config": {"scale": 1.0, "mode": "fan_avg", "distribution": "uniform", "seed": null}}, "bias_initializer": {"class_name": "Zeros", "config": {}}, "kernel_regularizer": null, "bias_regularizer": null, "activity_regularizer": null, "kernel_constraint": null, "bias_constraint": null}, "inbound_nodes": [[["relu4_1_x1", 0, 0, {}]]]}, {"name": "conv4_1_x2_bn", "class_name": "BatchNormalization", "config": {"name": "conv4_1_x2_bn", "trainable": true, "axis": 3, "momentum": 0.99, "epsilon": 1.1e-05, "center": true, "scale": true, "beta_initializer": {"class_name": "Zeros", "config": {}}, "gamma_initializer": {"class_name": "Ones", "config": {}}, "moving_mean_initializer": {"class_name": "Zeros", "config": {}}, "moving_variance_initializer": {"class_name": "Ones", "config": {}}, "beta_regularizer": null, "gamma_regularizer": null, "beta_constraint": null, "gamma_constraint": null}, "inbound_nodes": [[["conv4_1_x1", 0, 0, {}]]]}, {"name": "conv4_1_x2_scale", "class_name": "Scale", "config": {"name": "conv4_1_x2_scale", "trainable": true, "momentum": 0.9, "axis": 3}, "inbound_nodes": [[["conv4_1_x2_bn", 0, 0, {}]]]}, {"name": "relu4_1_x2", "class_name": "Activation", "config": {"name": "relu4_1_x2", "trainable": true, "activation": "relu"}, "inbound_nodes": [[["conv4_1_x2_scale", 0, 0, {}]]]}, {"name": "conv4_1_x2_zeropadding", "class_name": "ZeroPadding2D", "config": {"name": "conv4_1_x2_zeropadding", "trainable": true, "padding": [[1, 1], [1, 1]], "data_format": "channels_last"}, "inbound_nodes": [[["relu4_1_x2", 0, 0, {}]]]}, {"name": "conv4_1_x2", "class_name": "Conv2D", "config": {"name": "conv4_1_x2", "trainable": true, "filters": 32, "kernel_size": [3, 3], "strides": [1, 1], "padding": "valid", "data_format": "channels_last", "dilation_rate": [1, 1], "activation": "linear", "use_bias": false, "kernel_initializer": {"class_name": "VarianceScaling", "config": {"scale": 1.0, "mode": "fan_avg", "distribution": "uniform", "seed": null}}, "bias_initializer": {"class_name": "Zeros", "config": {}}, "kernel_regularizer": null, "bias_regularizer": null, "activity_regularizer": null, "kernel_constraint": null, "bias_constraint": null}, "inbound_nodes": [[["conv4_1_x2_zeropadding", 0, 0, {}]]]}, {"name": "concat_4_1", "class_name": "Concatenate", "config": {"name": "concat_4_1", "trainable": true, "axis": 3}, "inbound_nodes": [[["pool3", 0, 0, {}], ["conv4_1_x2", 0, 0, {}]]]}, {"name": "conv4_2_x1_bn", "class_name": "BatchNormalization", "config": {"name": "conv4_2_x1_bn", "trainable": true, "axis": 3, "momentum": 0.99, "epsilon": 1.1e-05, "center": true, "scale": true, "beta_initializer": {"class_name": "Zeros", "config": {}}, "gamma_initializer": {"class_name": "Ones", "config": {}}, "moving_mean_initializer": {"class_name": "Zeros", "config": {}}, "moving_variance_initializer": {"class_name": "Ones", "config": {}}, "beta_regularizer": null, "gamma_regularizer": null, "beta_constraint": null, "gamma_constraint": null}, "inbound_nodes": [[["concat_4_1", 0, 0, {}]]]}, {"name": "conv4_2_x1_scale", "class_name": "Scale", "config": {"name": "conv4_2_x1_scale", "trainable": true, "momentum": 0.9, "axis": 3}, "inbound_nodes": [[["conv4_2_x1_bn", 0, 0, {}]]]}, {"name": "relu4_2_x1", "class_name": "Activation", "config": {"name": "relu4_2_x1", "trainable": true, "activation": "relu"}, "inbound_nodes": [[["conv4_2_x1_scale", 0, 0, {}]]]}, {"name": "conv4_2_x1", "class_name": "Conv2D", "config": {"name": "conv4_2_x1", "trainable": true, "filters": 128, "kernel_size": [1, 1], "strides": [1, 1], "padding": "valid", "data_format": "channels_last", "dilation_rate": [1, 1], "activation": "linear", "use_bias": false, "kernel_initializer": {"class_name": "VarianceScaling", "config": {"scale": 1.0, "mode": "fan_avg", "distribution": "uniform", "seed": null}}, "bias_initializer": {"class_name": "Zeros", "config": {}}, "kernel_regularizer": null, "bias_regularizer": null, "activity_regularizer": null, "kernel_constraint": null, "bias_constraint": null}, "inbound_nodes": [[["relu4_2_x1", 0, 0, {}]]]}, {"name": "conv4_2_x2_bn", "class_name": "BatchNormalization", "config": {"name": "conv4_2_x2_bn", "trainable": true, "axis": 3, "momentum": 0.99, "epsilon": 1.1e-05, "center": true, "scale": true, "beta_initializer": {"class_name": "Zeros", "config": {}}, "gamma_initializer": {"class_name": "Ones", "config": {}}, "moving_mean_initializer": {"class_name": "Zeros", "config": {}}, "moving_variance_initializer": {"class_name": "Ones", "config": {}}, "beta_regularizer": null, "gamma_regularizer": null, "beta_constraint": null, "gamma_constraint": null}, "inbound_nodes": [[["conv4_2_x1", 0, 0, {}]]]}, {"name": "conv4_2_x2_scale", "class_name": "Scale", "config": {"name": "conv4_2_x2_scale", "trainable": true, "momentum": 0.9, "axis": 3}, "inbound_nodes": [[["conv4_2_x2_bn", 0, 0, {}]]]}, {"name": "relu4_2_x2", "class_name": "Activation", "config": {"name": "relu4_2_x2", "trainable": true, "activation": "relu"}, "inbound_nodes": [[["conv4_2_x2_scale", 0, 0, {}]]]}, {"name": "conv4_2_x2_zeropadding", "class_name": "ZeroPadding2D", "config": {"name": "conv4_2_x2_zeropadding", "trainable": true, "padding": [[1, 1], [1, 1]], "data_format": "channels_last"}, "inbound_nodes": [[["relu4_2_x2", 0, 0, {}]]]}, {"name": "conv4_2_x2", "class_name": "Conv2D", "config": {"name": "conv4_2_x2", "trainable": true, "filters": 32, "kernel_size": [3, 3], "strides": [1, 1], "padding": "valid", "data_format": "channels_last", "dilation_rate": [1, 1], "activation": "linear", "use_bias": false, "kernel_initializer": {"class_name": "VarianceScaling", "config": {"scale": 1.0, "mode": "fan_avg", "distribution": "uniform", "seed": null}}, "bias_initializer": {"class_name": "Zeros", "config": {}}, "kernel_regularizer": null, "bias_regularizer": null, "activity_regularizer": null, "kernel_constraint": null, "bias_constraint": null}, "inbound_nodes": [[["conv4_2_x2_zeropadding", 0, 0, {}]]]}, {"name": "concat_4_2", "class_name": "Concatenate", "config": {"name": "concat_4_2", "trainable": true, "axis": 3}, "inbound_nodes": [[["concat_4_1", 0, 0, {}], ["conv4_2_x2", 0, 0, {}]]]}, {"name": "conv4_3_x1_bn", "class_name": "BatchNormalization", "config": {"name": "conv4_3_x1_bn", "trainable": true, "axis": 3, "momentum": 0.99, "epsilon": 1.1e-05, "center": true, "scale": true, "beta_initializer": {"class_name": "Zeros", "config": {}}, "gamma_initializer": {"class_name": "Ones", "config": {}}, "moving_mean_initializer": {"class_name": "Zeros", "config": {}}, "moving_variance_initializer": {"class_name": "Ones", "config": {}}, "beta_regularizer": null, "gamma_regularizer": null, "beta_constraint": null, "gamma_constraint": null}, "inbound_nodes": [[["concat_4_2", 0, 0, {}]]]}, {"name": "conv4_3_x1_scale", "class_name": "Scale", "config": {"name": "conv4_3_x1_scale", "trainable": true, "momentum": 0.9, "axis": 3}, "inbound_nodes": [[["conv4_3_x1_bn", 0, 0, {}]]]}, {"name": "relu4_3_x1", "class_name": "Activation", "config": {"name": "relu4_3_x1", "trainable": true, "activation": "relu"}, "inbound_nodes": [[["conv4_3_x1_scale", 0, 0, {}]]]}, {"name": "conv4_3_x1", "class_name": "Conv2D", "config": {"name": "conv4_3_x1", "trainable": true, "filters": 128, "kernel_size": [1, 1], "strides": [1, 1], "padding": "valid", "data_format": "channels_last", "dilation_rate": [1, 1], "activation": "linear", "use_bias": false, "kernel_initializer": {"class_name": "VarianceScaling", "config": {"scale": 1.0, "mode": "fan_avg", "distribution": "uniform", "seed": null}}, "bias_initializer": {"class_name": "Zeros", "config": {}}, "kernel_regularizer": null, "bias_regularizer": null, "activity_regularizer": null, "kernel_constraint": null, "bias_constraint": null}, "inbound_nodes": [[["relu4_3_x1", 0, 0, {}]]]}, {"name": "conv4_3_x2_bn", "class_name": "BatchNormalization", "config": {"name": "conv4_3_x2_bn", "trainable": true, "axis": 3, "momentum": 0.99, "epsilon": 1.1e-05, "center": true, "scale": true, "beta_initializer": {"class_name": "Zeros", "config": {}}, "gamma_initializer": {"class_name": "Ones", "config": {}}, "moving_mean_initializer": {"class_name": "Zeros", "config": {}}, "moving_variance_initializer": {"class_name": "Ones", "config": {}}, "beta_regularizer": null, "gamma_regularizer": null, "beta_constraint": null, "gamma_constraint": null}, "inbound_nodes": [[["conv4_3_x1", 0, 0, {}]]]}, {"name": "conv4_3_x2_scale", "class_name": "Scale", "config": {"name": "conv4_3_x2_scale", "trainable": true, "momentum": 0.9, "axis": 3}, "inbound_nodes": [[["conv4_3_x2_bn", 0, 0, {}]]]}, {"name": "relu4_3_x2", "class_name": "Activation", "config": {"name": "relu4_3_x2", "trainable": true, "activation": "relu"}, "inbound_nodes": [[["conv4_3_x2_scale", 0, 0, {}]]]}, {"name": "conv4_3_x2_zeropadding", "class_name": "ZeroPadding2D", "config": {"name": "conv4_3_x2_zeropadding", "trainable": true, "padding": [[1, 1], [1, 1]], "data_format": "channels_last"}, "inbound_nodes": [[["relu4_3_x2", 0, 0, {}]]]}, {"name": "conv4_3_x2", "class_name": "Conv2D", "config": {"name": "conv4_3_x2", "trainable": true, "filters": 32, "kernel_size": [3, 3], "strides": [1, 1], "padding": "valid", "data_format": "channels_last", "dilation_rate": [1, 1], "activation": "linear", "use_bias": false, "kernel_initializer": {"class_name": "VarianceScaling", "config": {"scale": 1.0, "mode": "fan_avg", "distribution": "uniform", "seed": null}}, "bias_initializer": {"class_name": "Zeros", "config": {}}, "kernel_regularizer": null, "bias_regularizer": null, "activity_regularizer": null, "kernel_constraint": null, "bias_constraint": null}, "inbound_nodes": [[["conv4_3_x2_zeropadding", 0, 0, {}]]]}, {"name": "concat_4_3", "class_name": "Concatenate", "config": {"name": "concat_4_3", "trainable": true, "axis": 3}, "inbound_nodes": [[["concat_4_2", 0, 0, {}], ["conv4_3_x2", 0, 0, {}]]]}, {"name": "conv4_4_x1_bn", "class_name": "BatchNormalization", "config": {"name": "conv4_4_x1_bn", "trainable": true, "axis": 3, "momentum": 0.99, "epsilon": 1.1e-05, "center": true, "scale": true, "beta_initializer": {"class_name": "Zeros", "config": {}}, "gamma_initializer": {"class_name": "Ones", "config": {}}, "moving_mean_initializer": {"class_name": "Zeros", "config": {}}, "moving_variance_initializer": {"class_name": "Ones", "config": {}}, "beta_regularizer": null, "gamma_regularizer": null, "beta_constraint": null, "gamma_constraint": null}, "inbound_nodes": [[["concat_4_3", 0, 0, {}]]]}, {"name": "conv4_4_x1_scale", "class_name": "Scale", "config": {"name": "conv4_4_x1_scale", "trainable": true, "momentum": 0.9, "axis": 3}, "inbound_nodes": [[["conv4_4_x1_bn", 0, 0, {}]]]}, {"name": "relu4_4_x1", "class_name": "Activation", "config": {"name": "relu4_4_x1", "trainable": true, "activation": "relu"}, "inbound_nodes": [[["conv4_4_x1_scale", 0, 0, {}]]]}, {"name": "conv4_4_x1", "class_name": "Conv2D", "config": {"name": "conv4_4_x1", "trainable": true, "filters": 128, "kernel_size": [1, 1], "strides": [1, 1], "padding": "valid", "data_format": "channels_last", "dilation_rate": [1, 1], "activation": "linear", "use_bias": false, "kernel_initializer": {"class_name": "VarianceScaling", "config": {"scale": 1.0, "mode": "fan_avg", "distribution": "uniform", "seed": null}}, "bias_initializer": {"class_name": "Zeros", "config": {}}, "kernel_regularizer": null, "bias_regularizer": null, "activity_regularizer": null, "kernel_constraint": null, "bias_constraint": null}, "inbound_nodes": [[["relu4_4_x1", 0, 0, {}]]]}, {"name": "conv4_4_x2_bn", "class_name": "BatchNormalization", "config": {"name": "conv4_4_x2_bn", "trainable": true, "axis": 3, "momentum": 0.99, "epsilon": 1.1e-05, "center": true, "scale": true, "beta_initializer": {"class_name": "Zeros", "config": {}}, "gamma_initializer": {"class_name": "Ones", "config": {}}, "moving_mean_initializer": {"class_name": "Zeros", "config": {}}, "moving_variance_initializer": {"class_name": "Ones", "config": {}}, "beta_regularizer": null, "gamma_regularizer": null, "beta_constraint": null, "gamma_constraint": null}, "inbound_nodes": [[["conv4_4_x1", 0, 0, {}]]]}, {"name": "conv4_4_x2_scale", "class_name": "Scale", "config": {"name": "conv4_4_x2_scale", "trainable": true, "momentum": 0.9, "axis": 3}, "inbound_nodes": [[["conv4_4_x2_bn", 0, 0, {}]]]}, {"name": "relu4_4_x2", "class_name": "Activation", "config": {"name": "relu4_4_x2", "trainable": true, "activation": "relu"}, "inbound_nodes": [[["conv4_4_x2_scale", 0, 0, {}]]]}, {"name": "conv4_4_x2_zeropadding", "class_name": "ZeroPadding2D", "config": {"name": "conv4_4_x2_zeropadding", "trainable": true, "padding": [[1, 1], [1, 1]], "data_format": "channels_last"}, "inbound_nodes": [[["relu4_4_x2", 0, 0, {}]]]}, {"name": "conv4_4_x2", "class_name": "Conv2D", "config": {"name": "conv4_4_x2", "trainable": true, "filters": 32, "kernel_size": [3, 3], "strides": [1, 1], "padding": "valid", "data_format": "channels_last", "dilation_rate": [1, 1], "activation": "linear", "use_bias": false, "kernel_initializer": {"class_name": "VarianceScaling", "config": {"scale": 1.0, "mode": "fan_avg", "distribution": "uniform", "seed": null}}, "bias_initializer": {"class_name": "Zeros", "config": {}}, "kernel_regularizer": null, "bias_regularizer": null, "activity_regularizer": null, "kernel_constraint": null, "bias_constraint": null}, "inbound_nodes": [[["conv4_4_x2_zeropadding", 0, 0, {}]]]}, {"name": "concat_4_4", "class_name": "Concatenate", "config": {"name": "concat_4_4", "trainable": true, "axis": 3}, "inbound_nodes": [[["concat_4_3", 0, 0, {}], ["conv4_4_x2", 0, 0, {}]]]}, {"name": "conv4_5_x1_bn", "class_name": "BatchNormalization", "config": {"name": "conv4_5_x1_bn", "trainable": true, "axis": 3, "momentum": 0.99, "epsilon": 1.1e-05, "center": true, "scale": true, "beta_initializer": {"class_name": "Zeros", "config": {}}, "gamma_initializer": {"class_name": "Ones", "config": {}}, "moving_mean_initializer": {"class_name": "Zeros", "config": {}}, "moving_variance_initializer": {"class_name": "Ones", "config": {}}, "beta_regularizer": null, "gamma_regularizer": null, "beta_constraint": null, "gamma_constraint": null}, "inbound_nodes": [[["concat_4_4", 0, 0, {}]]]}, {"name": "conv4_5_x1_scale", "class_name": "Scale", "config": {"name": "conv4_5_x1_scale", "trainable": true, "momentum": 0.9, "axis": 3}, "inbound_nodes": [[["conv4_5_x1_bn", 0, 0, {}]]]}, {"name": "relu4_5_x1", "class_name": "Activation", "config": {"name": "relu4_5_x1", "trainable": true, "activation": "relu"}, "inbound_nodes": [[["conv4_5_x1_scale", 0, 0, {}]]]}, {"name": "conv4_5_x1", "class_name": "Conv2D", "config": {"name": "conv4_5_x1", "trainable": true, "filters": 128, "kernel_size": [1, 1], "strides": [1, 1], "padding": "valid", "data_format": "channels_last", "dilation_rate": [1, 1], "activation": "linear", "use_bias": false, "kernel_initializer": {"class_name": "VarianceScaling", "config": {"scale": 1.0, "mode": "fan_avg", "distribution": "uniform", "seed": null}}, "bias_initializer": {"class_name": "Zeros", "config": {}}, "kernel_regularizer": null, "bias_regularizer": null, "activity_regularizer": null, "kernel_constraint": null, "bias_constraint": null}, "inbound_nodes": [[["relu4_5_x1", 0, 0, {}]]]}, {"name": "conv4_5_x2_bn", "class_name": "BatchNormalization", "config": {"name": "conv4_5_x2_bn", "trainable": true, "axis": 3, "momentum": 0.99, "epsilon": 1.1e-05, "center": true, "scale": true, "beta_initializer": {"class_name": "Zeros", "config": {}}, "gamma_initializer": {"class_name": "Ones", "config": {}}, "moving_mean_initializer": {"class_name": "Zeros", "config": {}}, "moving_variance_initializer": {"class_name": "Ones", "config": {}}, "beta_regularizer": null, "gamma_regularizer": null, "beta_constraint": null, "gamma_constraint": null}, "inbound_nodes": [[["conv4_5_x1", 0, 0, {}]]]}, {"name": "conv4_5_x2_scale", "class_name": "Scale", "config": {"name": "conv4_5_x2_scale", "trainable": true, "momentum": 0.9, "axis": 3}, "inbound_nodes": [[["conv4_5_x2_bn", 0, 0, {}]]]}, {"name": "relu4_5_x2", "class_name": "Activation", "config": {"name": "relu4_5_x2", "trainable": true, "activation": "relu"}, "inbound_nodes": [[["conv4_5_x2_scale", 0, 0, {}]]]}, {"name": "conv4_5_x2_zeropadding", "class_name": "ZeroPadding2D", "config": {"name": "conv4_5_x2_zeropadding", "trainable": true, "padding": [[1, 1], [1, 1]], "data_format": "channels_last"}, "inbound_nodes": [[["relu4_5_x2", 0, 0, {}]]]}, {"name": "conv4_5_x2", "class_name": "Conv2D", "config": {"name": "conv4_5_x2", "trainable": true, "filters": 32, "kernel_size": [3, 3], "strides": [1, 1], "padding": "valid", "data_format": "channels_last", "dilation_rate": [1, 1], "activation": "linear", "use_bias": false, "kernel_initializer": {"class_name": "VarianceScaling", "config": {"scale": 1.0, "mode": "fan_avg", "distribution": "uniform", "seed": null}}, "bias_initializer": {"class_name": "Zeros", "config": {}}, "kernel_regularizer": null, "bias_regularizer": null, "activity_regularizer": null, "kernel_constraint": null, "bias_constraint": null}, "inbound_nodes": [[["conv4_5_x2_zeropadding", 0, 0, {}]]]}, {"name": "concat_4_5", "class_name": "Concatenate", "config": {"name": "concat_4_5", "trainable": true, "axis": 3}, "inbound_nodes": [[["concat_4_4", 0, 0, {}], ["conv4_5_x2", 0, 0, {}]]]}, {"name": "conv4_6_x1_bn", "class_name": "BatchNormalization", "config": {"name": "conv4_6_x1_bn", "trainable": true, "axis": 3, "momentum": 0.99, "epsilon": 1.1e-05, "center": true, "scale": true, "beta_initializer": {"class_name": "Zeros", "config": {}}, "gamma_initializer": {"class_name": "Ones", "config": {}}, "moving_mean_initializer": {"class_name": "Zeros", "config": {}}, "moving_variance_initializer": {"class_name": "Ones", "config": {}}, "beta_regularizer": null, "gamma_regularizer": null, "beta_constraint": null, "gamma_constraint": null}, "inbound_nodes": [[["concat_4_5", 0, 0, {}]]]}, {"name": "conv4_6_x1_scale", "class_name": "Scale", "config": {"name": "conv4_6_x1_scale", "trainable": true, "momentum": 0.9, "axis": 3}, "inbound_nodes": [[["conv4_6_x1_bn", 0, 0, {}]]]}, {"name": "relu4_6_x1", "class_name": "Activation", "config": {"name": "relu4_6_x1", "trainable": true, "activation": "relu"}, "inbound_nodes": [[["conv4_6_x1_scale", 0, 0, {}]]]}, {"name": "conv4_6_x1", "class_name": "Conv2D", "config": {"name": "conv4_6_x1", "trainable": true, "filters": 128, "kernel_size": [1, 1], "strides": [1, 1], "padding": "valid", "data_format": "channels_last", "dilation_rate": [1, 1], "activation": "linear", "use_bias": false, "kernel_initializer": {"class_name": "VarianceScaling", "config": {"scale": 1.0, "mode": "fan_avg", "distribution": "uniform", "seed": null}}, "bias_initializer": {"class_name": "Zeros", "config": {}}, "kernel_regularizer": null, "bias_regularizer": null, "activity_regularizer": null, "kernel_constraint": null, "bias_constraint": null}, "inbound_nodes": [[["relu4_6_x1", 0, 0, {}]]]}, {"name": "conv4_6_x2_bn", "class_name": "BatchNormalization", "config": {"name": "conv4_6_x2_bn", "trainable": true, "axis": 3, "momentum": 0.99, "epsilon": 1.1e-05, "center": true, "scale": true, "beta_initializer": {"class_name": "Zeros", "config": {}}, "gamma_initializer": {"class_name": "Ones", "config": {}}, "moving_mean_initializer": {"class_name": "Zeros", "config": {}}, "moving_variance_initializer": {"class_name": "Ones", "config": {}}, "beta_regularizer": null, "gamma_regularizer": null, "beta_constraint": null, "gamma_constraint": null}, "inbound_nodes": [[["conv4_6_x1", 0, 0, {}]]]}, {"name": "conv4_6_x2_scale", "class_name": "Scale", "config": {"name": "conv4_6_x2_scale", "trainable": true, "momentum": 0.9, "axis": 3}, "inbound_nodes": [[["conv4_6_x2_bn", 0, 0, {}]]]}, {"name": "relu4_6_x2", "class_name": "Activation", "config": {"name": "relu4_6_x2", "trainable": true, "activation": "relu"}, "inbound_nodes": [[["conv4_6_x2_scale", 0, 0, {}]]]}, {"name": "conv4_6_x2_zeropadding", "class_name": "ZeroPadding2D", "config": {"name": "conv4_6_x2_zeropadding", "trainable": true, "padding": [[1, 1], [1, 1]], "data_format": "channels_last"}, "inbound_nodes": [[["relu4_6_x2", 0, 0, {}]]]}, {"name": "conv4_6_x2", "class_name": "Conv2D", "config": {"name": "conv4_6_x2", "trainable": true, "filters": 32, "kernel_size": [3, 3], "strides": [1, 1], "padding": "valid", "data_format": "channels_last", "dilation_rate": [1, 1], "activation": "linear", "use_bias": false, "kernel_initializer": {"class_name": "VarianceScaling", "config": {"scale": 1.0, "mode": "fan_avg", "distribution": "uniform", "seed": null}}, "bias_initializer": {"class_name": "Zeros", "config": {}}, "kernel_regularizer": null, "bias_regularizer": null, "activity_regularizer": null, "kernel_constraint": null, "bias_constraint": null}, "inbound_nodes": [[["conv4_6_x2_zeropadding", 0, 0, {}]]]}, {"name": "concat_4_6", "class_name": "Concatenate", "config": {"name": "concat_4_6", "trainable": true, "axis": 3}, "inbound_nodes": [[["concat_4_5", 0, 0, {}], ["conv4_6_x2", 0, 0, {}]]]}, {"name": "conv4_7_x1_bn", "class_name": "BatchNormalization", "config": {"name": "conv4_7_x1_bn", "trainable": true, "axis": 3, "momentum": 0.99, "epsilon": 1.1e-05, "center": true, "scale": true, "beta_initializer": {"class_name": "Zeros", "config": {}}, "gamma_initializer": {"class_name": "Ones", "config": {}}, "moving_mean_initializer": {"class_name": "Zeros", "config": {}}, "moving_variance_initializer": {"class_name": "Ones", "config": {}}, "beta_regularizer": null, "gamma_regularizer": null, "beta_constraint": null, "gamma_constraint": null}, "inbound_nodes": [[["concat_4_6", 0, 0, {}]]]}, {"name": "conv4_7_x1_scale", "class_name": "Scale", "config": {"name": "conv4_7_x1_scale", "trainable": true, "momentum": 0.9, "axis": 3}, "inbound_nodes": [[["conv4_7_x1_bn", 0, 0, {}]]]}, {"name": "relu4_7_x1", "class_name": "Activation", "config": {"name": "relu4_7_x1", "trainable": true, "activation": "relu"}, "inbound_nodes": [[["conv4_7_x1_scale", 0, 0, {}]]]}, {"name": "conv4_7_x1", "class_name": "Conv2D", "config": {"name": "conv4_7_x1", "trainable": true, "filters": 128, "kernel_size": [1, 1], "strides": [1, 1], "padding": "valid", "data_format": "channels_last", "dilation_rate": [1, 1], "activation": "linear", "use_bias": false, "kernel_initializer": {"class_name": "VarianceScaling", "config": {"scale": 1.0, "mode": "fan_avg", "distribution": "uniform", "seed": null}}, "bias_initializer": {"class_name": "Zeros", "config": {}}, "kernel_regularizer": null, "bias_regularizer": null, "activity_regularizer": null, "kernel_constraint": null, "bias_constraint": null}, "inbound_nodes": [[["relu4_7_x1", 0, 0, {}]]]}, {"name": "conv4_7_x2_bn", "class_name": "BatchNormalization", "config": {"name": "conv4_7_x2_bn", "trainable": true, "axis": 3, "momentum": 0.99, "epsilon": 1.1e-05, "center": true, "scale": true, "beta_initializer": {"class_name": "Zeros", "config": {}}, "gamma_initializer": {"class_name": "Ones", "config": {}}, "moving_mean_initializer": {"class_name": "Zeros", "config": {}}, "moving_variance_initializer": {"class_name": "Ones", "config": {}}, "beta_regularizer": null, "gamma_regularizer": null, "beta_constraint": null, "gamma_constraint": null}, "inbound_nodes": [[["conv4_7_x1", 0, 0, {}]]]}, {"name": "conv4_7_x2_scale", "class_name": "Scale", "config": {"name": "conv4_7_x2_scale", "trainable": true, "momentum": 0.9, "axis": 3}, "inbound_nodes": [[["conv4_7_x2_bn", 0, 0, {}]]]}, {"name": "relu4_7_x2", "class_name": "Activation", "config": {"name": "relu4_7_x2", "trainable": true, "activation": "relu"}, "inbound_nodes": [[["conv4_7_x2_scale", 0, 0, {}]]]}, {"name": "conv4_7_x2_zeropadding", "class_name": "ZeroPadding2D", "config": {"name": "conv4_7_x2_zeropadding", "trainable": true, "padding": [[1, 1], [1, 1]], "data_format": "channels_last"}, "inbound_nodes": [[["relu4_7_x2", 0, 0, {}]]]}, {"name": "conv4_7_x2", "class_name": "Conv2D", "config": {"name": "conv4_7_x2", "trainable": true, "filters": 32, "kernel_size": [3, 3], "strides": [1, 1], "padding": "valid", "data_format": "channels_last", "dilation_rate": [1, 1], "activation": "linear", "use_bias": false, "kernel_initializer": {"class_name": "VarianceScaling", "config": {"scale": 1.0, "mode": "fan_avg", "distribution": "uniform", "seed": null}}, "bias_initializer": {"class_name": "Zeros", "config": {}}, "kernel_regularizer": null, "bias_regularizer": null, "activity_regularizer": null, "kernel_constraint": null, "bias_constraint": null}, "inbound_nodes": [[["conv4_7_x2_zeropadding", 0, 0, {}]]]}, {"name": "concat_4_7", "class_name": "Concatenate", "config": {"name": "concat_4_7", "trainable": true, "axis": 3}, "inbound_nodes": [[["concat_4_6", 0, 0, {}], ["conv4_7_x2", 0, 0, {}]]]}, {"name": "conv4_8_x1_bn", "class_name": "BatchNormalization", "config": {"name": "conv4_8_x1_bn", "trainable": true, "axis": 3, "momentum": 0.99, "epsilon": 1.1e-05, "center": true, "scale": true, "beta_initializer": {"class_name": "Zeros", "config": {}}, "gamma_initializer": {"class_name": "Ones", "config": {}}, "moving_mean_initializer": {"class_name": "Zeros", "config": {}}, "moving_variance_initializer": {"class_name": "Ones", "config": {}}, "beta_regularizer": null, "gamma_regularizer": null, "beta_constraint": null, "gamma_constraint": null}, "inbound_nodes": [[["concat_4_7", 0, 0, {}]]]}, {"name": "conv4_8_x1_scale", "class_name": "Scale", "config": {"name": "conv4_8_x1_scale", "trainable": true, "momentum": 0.9, "axis": 3}, "inbound_nodes": [[["conv4_8_x1_bn", 0, 0, {}]]]}, {"name": "relu4_8_x1", "class_name": "Activation", "config": {"name": "relu4_8_x1", "trainable": true, "activation": "relu"}, "inbound_nodes": [[["conv4_8_x1_scale", 0, 0, {}]]]}, {"name": "conv4_8_x1", "class_name": "Conv2D", "config": {"name": "conv4_8_x1", "trainable": true, "filters": 128, "kernel_size": [1, 1], "strides": [1, 1], "padding": "valid", "data_format": "channels_last", "dilation_rate": [1, 1], "activation": "linear", "use_bias": false, "kernel_initializer": {"class_name": "VarianceScaling", "config": {"scale": 1.0, "mode": "fan_avg", "distribution": "uniform", "seed": null}}, "bias_initializer": {"class_name": "Zeros", "config": {}}, "kernel_regularizer": null, "bias_regularizer": null, "activity_regularizer": null, "kernel_constraint": null, "bias_constraint": null}, "inbound_nodes": [[["relu4_8_x1", 0, 0, {}]]]}, {"name": "conv4_8_x2_bn", "class_name": "BatchNormalization", "config": {"name": "conv4_8_x2_bn", "trainable": true, "axis": 3, "momentum": 0.99, "epsilon": 1.1e-05, "center": true, "scale": true, "beta_initializer": {"class_name": "Zeros", "config": {}}, "gamma_initializer": {"class_name": "Ones", "config": {}}, "moving_mean_initializer": {"class_name": "Zeros", "config": {}}, "moving_variance_initializer": {"class_name": "Ones", "config": {}}, "beta_regularizer": null, "gamma_regularizer": null, "beta_constraint": null, "gamma_constraint": null}, "inbound_nodes": [[["conv4_8_x1", 0, 0, {}]]]}, {"name": "conv4_8_x2_scale", "class_name": "Scale", "config": {"name": "conv4_8_x2_scale", "trainable": true, "momentum": 0.9, "axis": 3}, "inbound_nodes": [[["conv4_8_x2_bn", 0, 0, {}]]]}, {"name": "relu4_8_x2", "class_name": "Activation", "config": {"name": "relu4_8_x2", "trainable": true, "activation": "relu"}, "inbound_nodes": [[["conv4_8_x2_scale", 0, 0, {}]]]}, {"name": "conv4_8_x2_zeropadding", "class_name": "ZeroPadding2D", "config": {"name": "conv4_8_x2_zeropadding", "trainable": true, "padding": [[1, 1], [1, 1]], "data_format": "channels_last"}, "inbound_nodes": [[["relu4_8_x2", 0, 0, {}]]]}, {"name": "conv4_8_x2", "class_name": "Conv2D", "config": {"name": "conv4_8_x2", "trainable": true, "filters": 32, "kernel_size": [3, 3], "strides": [1, 1], "padding": "valid", "data_format": "channels_last", "dilation_rate": [1, 1], "activation": "linear", "use_bias": false, "kernel_initializer": {"class_name": "VarianceScaling", "config": {"scale": 1.0, "mode": "fan_avg", "distribution": "uniform", "seed": null}}, "bias_initializer": {"class_name": "Zeros", "config": {}}, "kernel_regularizer": null, "bias_regularizer": null, "activity_regularizer": null, "kernel_constraint": null, "bias_constraint": null}, "inbound_nodes": [[["conv4_8_x2_zeropadding", 0, 0, {}]]]}, {"name": "concat_4_8", "class_name": "Concatenate", "config": {"name": "concat_4_8", "trainable": true, "axis": 3}, "inbound_nodes": [[["concat_4_7", 0, 0, {}], ["conv4_8_x2", 0, 0, {}]]]}, {"name": "conv4_9_x1_bn", "class_name": "BatchNormalization", "config": {"name": "conv4_9_x1_bn", "trainable": true, "axis": 3, "momentum": 0.99, "epsilon": 1.1e-05, "center": true, "scale": true, "beta_initializer": {"class_name": "Zeros", "config": {}}, "gamma_initializer": {"class_name": "Ones", "config": {}}, "moving_mean_initializer": {"class_name": "Zeros", "config": {}}, "moving_variance_initializer": {"class_name": "Ones", "config": {}}, "beta_regularizer": null, "gamma_regularizer": null, "beta_constraint": null, "gamma_constraint": null}, "inbound_nodes": [[["concat_4_8", 0, 0, {}]]]}, {"name": "conv4_9_x1_scale", "class_name": "Scale", "config": {"name": "conv4_9_x1_scale", "trainable": true, "momentum": 0.9, "axis": 3}, "inbound_nodes": [[["conv4_9_x1_bn", 0, 0, {}]]]}, {"name": "relu4_9_x1", "class_name": "Activation", "config": {"name": "relu4_9_x1", "trainable": true, "activation": "relu"}, "inbound_nodes": [[["conv4_9_x1_scale", 0, 0, {}]]]}, {"name": "conv4_9_x1", "class_name": "Conv2D", "config": {"name": "conv4_9_x1", "trainable": true, "filters": 128, "kernel_size": [1, 1], "strides": [1, 1], "padding": "valid", "data_format": "channels_last", "dilation_rate": [1, 1], "activation": "linear", "use_bias": false, "kernel_initializer": {"class_name": "VarianceScaling", "config": {"scale": 1.0, "mode": "fan_avg", "distribution": "uniform", "seed": null}}, "bias_initializer": {"class_name": "Zeros", "config": {}}, "kernel_regularizer": null, "bias_regularizer": null, "activity_regularizer": null, "kernel_constraint": null, "bias_constraint": null}, "inbound_nodes": [[["relu4_9_x1", 0, 0, {}]]]}, {"name": "conv4_9_x2_bn", "class_name": "BatchNormalization", "config": {"name": "conv4_9_x2_bn", "trainable": true, "axis": 3, "momentum": 0.99, "epsilon": 1.1e-05, "center": true, "scale": true, "beta_initializer": {"class_name": "Zeros", "config": {}}, "gamma_initializer": {"class_name": "Ones", "config": {}}, "moving_mean_initializer": {"class_name": "Zeros", "config": {}}, "moving_variance_initializer": {"class_name": "Ones", "config": {}}, "beta_regularizer": null, "gamma_regularizer": null, "beta_constraint": null, "gamma_constraint": null}, "inbound_nodes": [[["conv4_9_x1", 0, 0, {}]]]}, {"name": "conv4_9_x2_scale", "class_name": "Scale", "config": {"name": "conv4_9_x2_scale", "trainable": true, "momentum": 0.9, "axis": 3}, "inbound_nodes": [[["conv4_9_x2_bn", 0, 0, {}]]]}, {"name": "relu4_9_x2", "class_name": "Activation", "config": {"name": "relu4_9_x2", "trainable": true, "activation": "relu"}, "inbound_nodes": [[["conv4_9_x2_scale", 0, 0, {}]]]}, {"name": "conv4_9_x2_zeropadding", "class_name": "ZeroPadding2D", "config": {"name": "conv4_9_x2_zeropadding", "trainable": true, "padding": [[1, 1], [1, 1]], "data_format": "channels_last"}, "inbound_nodes": [[["relu4_9_x2", 0, 0, {}]]]}, {"name": "conv4_9_x2", "class_name": "Conv2D", "config": {"name": "conv4_9_x2", "trainable": true, "filters": 32, "kernel_size": [3, 3], "strides": [1, 1], "padding": "valid", "data_format": "channels_last", "dilation_rate": [1, 1], "activation": "linear", "use_bias": false, "kernel_initializer": {"class_name": "VarianceScaling", "config": {"scale": 1.0, "mode": "fan_avg", "distribution": "uniform", "seed": null}}, "bias_initializer": {"class_name": "Zeros", "config": {}}, "kernel_regularizer": null, "bias_regularizer": null, "activity_regularizer": null, "kernel_constraint": null, "bias_constraint": null}, "inbound_nodes": [[["conv4_9_x2_zeropadding", 0, 0, {}]]]}, {"name": "concat_4_9", "class_name": "Concatenate", "config": {"name": "concat_4_9", "trainable": true, "axis": 3}, "inbound_nodes": [[["concat_4_8", 0, 0, {}], ["conv4_9_x2", 0, 0, {}]]]}, {"name": "conv4_10_x1_bn", "class_name": "BatchNormalization", "config": {"name": "conv4_10_x1_bn", "trainable": true, "axis": 3, "momentum": 0.99, "epsilon": 1.1e-05, "center": true, "scale": true, "beta_initializer": {"class_name": "Zeros", "config": {}}, "gamma_initializer": {"class_name": "Ones", "config": {}}, "moving_mean_initializer": {"class_name": "Zeros", "config": {}}, "moving_variance_initializer": {"class_name": "Ones", "config": {}}, "beta_regularizer": null, "gamma_regularizer": null, "beta_constraint": null, "gamma_constraint": null}, "inbound_nodes": [[["concat_4_9", 0, 0, {}]]]}, {"name": "conv4_10_x1_scale", "class_name": "Scale", "config": {"name": "conv4_10_x1_scale", "trainable": true, "momentum": 0.9, "axis": 3}, "inbound_nodes": [[["conv4_10_x1_bn", 0, 0, {}]]]}, {"name": "relu4_10_x1", "class_name": "Activation", "config": {"name": "relu4_10_x1", "trainable": true, "activation": "relu"}, "inbound_nodes": [[["conv4_10_x1_scale", 0, 0, {}]]]}, {"name": "conv4_10_x1", "class_name": "Conv2D", "config": {"name": "conv4_10_x1", "trainable": true, "filters": 128, "kernel_size": [1, 1], "strides": [1, 1], "padding": "valid", "data_format": "channels_last", "dilation_rate": [1, 1], "activation": "linear", "use_bias": false, "kernel_initializer": {"class_name": "VarianceScaling", "config": {"scale": 1.0, "mode": "fan_avg", "distribution": "uniform", "seed": null}}, "bias_initializer": {"class_name": "Zeros", "config": {}}, "kernel_regularizer": null, "bias_regularizer": null, "activity_regularizer": null, "kernel_constraint": null, "bias_constraint": null}, "inbound_nodes": [[["relu4_10_x1", 0, 0, {}]]]}, {"name": "conv4_10_x2_bn", "class_name": "BatchNormalization", "config": {"name": "conv4_10_x2_bn", "trainable": true, "axis": 3, "momentum": 0.99, "epsilon": 1.1e-05, "center": true, "scale": true, "beta_initializer": {"class_name": "Zeros", "config": {}}, "gamma_initializer": {"class_name": "Ones", "config": {}}, "moving_mean_initializer": {"class_name": "Zeros", "config": {}}, "moving_variance_initializer": {"class_name": "Ones", "config": {}}, "beta_regularizer": null, "gamma_regularizer": null, "beta_constraint": null, "gamma_constraint": null}, "inbound_nodes": [[["conv4_10_x1", 0, 0, {}]]]}, {"name": "conv4_10_x2_scale", "class_name": "Scale", "config": {"name": "conv4_10_x2_scale", "trainable": true, "momentum": 0.9, "axis": 3}, "inbound_nodes": [[["conv4_10_x2_bn", 0, 0, {}]]]}, {"name": "relu4_10_x2", "class_name": "Activation", "config": {"name": "relu4_10_x2", "trainable": true, "activation": "relu"}, "inbound_nodes": [[["conv4_10_x2_scale", 0, 0, {}]]]}, {"name": "conv4_10_x2_zeropadding", "class_name": "ZeroPadding2D", "config": {"name": "conv4_10_x2_zeropadding", "trainable": true, "padding": [[1, 1], [1, 1]], "data_format": "channels_last"}, "inbound_nodes": [[["relu4_10_x2", 0, 0, {}]]]}, {"name": "conv4_10_x2", "class_name": "Conv2D", "config": {"name": "conv4_10_x2", "trainable": true, "filters": 32, "kernel_size": [3, 3], "strides": [1, 1], "padding": "valid", "data_format": "channels_last", "dilation_rate": [1, 1], "activation": "linear", "use_bias": false, "kernel_initializer": {"class_name": "VarianceScaling", "config": {"scale": 1.0, "mode": "fan_avg", "distribution": "uniform", "seed": null}}, "bias_initializer": {"class_name": "Zeros", "config": {}}, "kernel_regularizer": null, "bias_regularizer": null, "activity_regularizer": null, "kernel_constraint": null, "bias_constraint": null}, "inbound_nodes": [[["conv4_10_x2_zeropadding", 0, 0, {}]]]}, {"name": "concat_4_10", "class_name": "Concatenate", "config": {"name": "concat_4_10", "trainable": true, "axis": 3}, "inbound_nodes": [[["concat_4_9", 0, 0, {}], ["conv4_10_x2", 0, 0, {}]]]}, {"name": "conv4_11_x1_bn", "class_name": "BatchNormalization", "config": {"name": "conv4_11_x1_bn", "trainable": true, "axis": 3, "momentum": 0.99, "epsilon": 1.1e-05, "center": true, "scale": true, "beta_initializer": {"class_name": "Zeros", "config": {}}, "gamma_initializer": {"class_name": "Ones", "config": {}}, "moving_mean_initializer": {"class_name": "Zeros", "config": {}}, "moving_variance_initializer": {"class_name": "Ones", "config": {}}, "beta_regularizer": null, "gamma_regularizer": null, "beta_constraint": null, "gamma_constraint": null}, "inbound_nodes": [[["concat_4_10", 0, 0, {}]]]}, {"name": "conv4_11_x1_scale", "class_name": "Scale", "config": {"name": "conv4_11_x1_scale", "trainable": true, "momentum": 0.9, "axis": 3}, "inbound_nodes": [[["conv4_11_x1_bn", 0, 0, {}]]]}, {"name": "relu4_11_x1", "class_name": "Activation", "config": {"name": "relu4_11_x1", "trainable": true, "activation": "relu"}, "inbound_nodes": [[["conv4_11_x1_scale", 0, 0, {}]]]}, {"name": "conv4_11_x1", "class_name": "Conv2D", "config": {"name": "conv4_11_x1", "trainable": true, "filters": 128, "kernel_size": [1, 1], "strides": [1, 1], "padding": "valid", "data_format": "channels_last", "dilation_rate": [1, 1], "activation": "linear", "use_bias": false, "kernel_initializer": {"class_name": "VarianceScaling", "config": {"scale": 1.0, "mode": "fan_avg", "distribution": "uniform", "seed": null}}, "bias_initializer": {"class_name": "Zeros", "config": {}}, "kernel_regularizer": null, "bias_regularizer": null, "activity_regularizer": null, "kernel_constraint": null, "bias_constraint": null}, "inbound_nodes": [[["relu4_11_x1", 0, 0, {}]]]}, {"name": "conv4_11_x2_bn", "class_name": "BatchNormalization", "config": {"name": "conv4_11_x2_bn", "trainable": true, "axis": 3, "momentum": 0.99, "epsilon": 1.1e-05, "center": true, "scale": true, "beta_initializer": {"class_name": "Zeros", "config": {}}, "gamma_initializer": {"class_name": "Ones", "config": {}}, "moving_mean_initializer": {"class_name": "Zeros", "config": {}}, "moving_variance_initializer": {"class_name": "Ones", "config": {}}, "beta_regularizer": null, "gamma_regularizer": null, "beta_constraint": null, "gamma_constraint": null}, "inbound_nodes": [[["conv4_11_x1", 0, 0, {}]]]}, {"name": "conv4_11_x2_scale", "class_name": "Scale", "config": {"name": "conv4_11_x2_scale", "trainable": true, "momentum": 0.9, "axis": 3}, "inbound_nodes": [[["conv4_11_x2_bn", 0, 0, {}]]]}, {"name": "relu4_11_x2", "class_name": "Activation", "config": {"name": "relu4_11_x2", "trainable": true, "activation": "relu"}, "inbound_nodes": [[["conv4_11_x2_scale", 0, 0, {}]]]}, {"name": "conv4_11_x2_zeropadding", "class_name": "ZeroPadding2D", "config": {"name": "conv4_11_x2_zeropadding", "trainable": true, "padding": [[1, 1], [1, 1]], "data_format": "channels_last"}, "inbound_nodes": [[["relu4_11_x2", 0, 0, {}]]]}, {"name": "conv4_11_x2", "class_name": "Conv2D", "config": {"name": "conv4_11_x2", "trainable": true, "filters": 32, "kernel_size": [3, 3], "strides": [1, 1], "padding": "valid", "data_format": "channels_last", "dilation_rate": [1, 1], "activation": "linear", "use_bias": false, "kernel_initializer": {"class_name": "VarianceScaling", "config": {"scale": 1.0, "mode": "fan_avg", "distribution": "uniform", "seed": null}}, "bias_initializer": {"class_name": "Zeros", "config": {}}, "kernel_regularizer": null, "bias_regularizer": null, "activity_regularizer": null, "kernel_constraint": null, "bias_constraint": null}, "inbound_nodes": [[["conv4_11_x2_zeropadding", 0, 0, {}]]]}, {"name": "concat_4_11", "class_name": "Concatenate", "config": {"name": "concat_4_11", "trainable": true, "axis": 3}, "inbound_nodes": [[["concat_4_10", 0, 0, {}], ["conv4_11_x2", 0, 0, {}]]]}, {"name": "conv4_12_x1_bn", "class_name": "BatchNormalization", "config": {"name": "conv4_12_x1_bn", "trainable": true, "axis": 3, "momentum": 0.99, "epsilon": 1.1e-05, "center": true, "scale": true, "beta_initializer": {"class_name": "Zeros", "config": {}}, "gamma_initializer": {"class_name": "Ones", "config": {}}, "moving_mean_initializer": {"class_name": "Zeros", "config": {}}, "moving_variance_initializer": {"class_name": "Ones", "config": {}}, "beta_regularizer": null, "gamma_regularizer": null, "beta_constraint": null, "gamma_constraint": null}, "inbound_nodes": [[["concat_4_11", 0, 0, {}]]]}, {"name": "conv4_12_x1_scale", "class_name": "Scale", "config": {"name": "conv4_12_x1_scale", "trainable": true, "momentum": 0.9, "axis": 3}, "inbound_nodes": [[["conv4_12_x1_bn", 0, 0, {}]]]}, {"name": "relu4_12_x1", "class_name": "Activation", "config": {"name": "relu4_12_x1", "trainable": true, "activation": "relu"}, "inbound_nodes": [[["conv4_12_x1_scale", 0, 0, {}]]]}, {"name": "conv4_12_x1", "class_name": "Conv2D", "config": {"name": "conv4_12_x1", "trainable": true, "filters": 128, "kernel_size": [1, 1], "strides": [1, 1], "padding": "valid", "data_format": "channels_last", "dilation_rate": [1, 1], "activation": "linear", "use_bias": false, "kernel_initializer": {"class_name": "VarianceScaling", "config": {"scale": 1.0, "mode": "fan_avg", "distribution": "uniform", "seed": null}}, "bias_initializer": {"class_name": "Zeros", "config": {}}, "kernel_regularizer": null, "bias_regularizer": null, "activity_regularizer": null, "kernel_constraint": null, "bias_constraint": null}, "inbound_nodes": [[["relu4_12_x1", 0, 0, {}]]]}, {"name": "conv4_12_x2_bn", "class_name": "BatchNormalization", "config": {"name": "conv4_12_x2_bn", "trainable": true, "axis": 3, "momentum": 0.99, "epsilon": 1.1e-05, "center": true, "scale": true, "beta_initializer": {"class_name": "Zeros", "config": {}}, "gamma_initializer": {"class_name": "Ones", "config": {}}, "moving_mean_initializer": {"class_name": "Zeros", "config": {}}, "moving_variance_initializer": {"class_name": "Ones", "config": {}}, "beta_regularizer": null, "gamma_regularizer": null, "beta_constraint": null, "gamma_constraint": null}, "inbound_nodes": [[["conv4_12_x1", 0, 0, {}]]]}, {"name": "conv4_12_x2_scale", "class_name": "Scale", "config": {"name": "conv4_12_x2_scale", "trainable": true, "momentum": 0.9, "axis": 3}, "inbound_nodes": [[["conv4_12_x2_bn", 0, 0, {}]]]}, {"name": "relu4_12_x2", "class_name": "Activation", "config": {"name": "relu4_12_x2", "trainable": true, "activation": "relu"}, "inbound_nodes": [[["conv4_12_x2_scale", 0, 0, {}]]]}, {"name": "conv4_12_x2_zeropadding", "class_name": "ZeroPadding2D", "config": {"name": "conv4_12_x2_zeropadding", "trainable": true, "padding": [[1, 1], [1, 1]], "data_format": "channels_last"}, "inbound_nodes": [[["relu4_12_x2", 0, 0, {}]]]}, {"name": "conv4_12_x2", "class_name": "Conv2D", "config": {"name": "conv4_12_x2", "trainable": true, "filters": 32, "kernel_size": [3, 3], "strides": [1, 1], "padding": "valid", "data_format": "channels_last", "dilation_rate": [1, 1], "activation": "linear", "use_bias": false, "kernel_initializer": {"class_name": "VarianceScaling", "config": {"scale": 1.0, "mode": "fan_avg", "distribution": "uniform", "seed": null}}, "bias_initializer": {"class_name": "Zeros", "config": {}}, "kernel_regularizer": null, "bias_regularizer": null, "activity_regularizer": null, "kernel_constraint": null, "bias_constraint": null}, "inbound_nodes": [[["conv4_12_x2_zeropadding", 0, 0, {}]]]}, {"name": "concat_4_12", "class_name": "Concatenate", "config": {"name": "concat_4_12", "trainable": true, "axis": 3}, "inbound_nodes": [[["concat_4_11", 0, 0, {}], ["conv4_12_x2", 0, 0, {}]]]}, {"name": "conv4_13_x1_bn", "class_name": "BatchNormalization", "config": {"name": "conv4_13_x1_bn", "trainable": true, "axis": 3, "momentum": 0.99, "epsilon": 1.1e-05, "center": true, "scale": true, "beta_initializer": {"class_name": "Zeros", "config": {}}, "gamma_initializer": {"class_name": "Ones", "config": {}}, "moving_mean_initializer": {"class_name": "Zeros", "config": {}}, "moving_variance_initializer": {"class_name": "Ones", "config": {}}, "beta_regularizer": null, "gamma_regularizer": null, "beta_constraint": null, "gamma_constraint": null}, "inbound_nodes": [[["concat_4_12", 0, 0, {}]]]}, {"name": "conv4_13_x1_scale", "class_name": "Scale", "config": {"name": "conv4_13_x1_scale", "trainable": true, "momentum": 0.9, "axis": 3}, "inbound_nodes": [[["conv4_13_x1_bn", 0, 0, {}]]]}, {"name": "relu4_13_x1", "class_name": "Activation", "config": {"name": "relu4_13_x1", "trainable": true, "activation": "relu"}, "inbound_nodes": [[["conv4_13_x1_scale", 0, 0, {}]]]}, {"name": "conv4_13_x1", "class_name": "Conv2D", "config": {"name": "conv4_13_x1", "trainable": true, "filters": 128, "kernel_size": [1, 1], "strides": [1, 1], "padding": "valid", "data_format": "channels_last", "dilation_rate": [1, 1], "activation": "linear", "use_bias": false, "kernel_initializer": {"class_name": "VarianceScaling", "config": {"scale": 1.0, "mode": "fan_avg", "distribution": "uniform", "seed": null}}, "bias_initializer": {"class_name": "Zeros", "config": {}}, "kernel_regularizer": null, "bias_regularizer": null, "activity_regularizer": null, "kernel_constraint": null, "bias_constraint": null}, "inbound_nodes": [[["relu4_13_x1", 0, 0, {}]]]}, {"name": "conv4_13_x2_bn", "class_name": "BatchNormalization", "config": {"name": "conv4_13_x2_bn", "trainable": true, "axis": 3, "momentum": 0.99, "epsilon": 1.1e-05, "center": true, "scale": true, "beta_initializer": {"class_name": "Zeros", "config": {}}, "gamma_initializer": {"class_name": "Ones", "config": {}}, "moving_mean_initializer": {"class_name": "Zeros", "config": {}}, "moving_variance_initializer": {"class_name": "Ones", "config": {}}, "beta_regularizer": null, "gamma_regularizer": null, "beta_constraint": null, "gamma_constraint": null}, "inbound_nodes": [[["conv4_13_x1", 0, 0, {}]]]}, {"name": "conv4_13_x2_scale", "class_name": "Scale", "config": {"name": "conv4_13_x2_scale", "trainable": true, "momentum": 0.9, "axis": 3}, "inbound_nodes": [[["conv4_13_x2_bn", 0, 0, {}]]]}, {"name": "relu4_13_x2", "class_name": "Activation", "config": {"name": "relu4_13_x2", "trainable": true, "activation": "relu"}, "inbound_nodes": [[["conv4_13_x2_scale", 0, 0, {}]]]}, {"name": "conv4_13_x2_zeropadding", "class_name": "ZeroPadding2D", "config": {"name": "conv4_13_x2_zeropadding", "trainable": true, "padding": [[1, 1], [1, 1]], "data_format": "channels_last"}, "inbound_nodes": [[["relu4_13_x2", 0, 0, {}]]]}, {"name": "conv4_13_x2", "class_name": "Conv2D", "config": {"name": "conv4_13_x2", "trainable": true, "filters": 32, "kernel_size": [3, 3], "strides": [1, 1], "padding": "valid", "data_format": "channels_last", "dilation_rate": [1, 1], "activation": "linear", "use_bias": false, "kernel_initializer": {"class_name": "VarianceScaling", "config": {"scale": 1.0, "mode": "fan_avg", "distribution": "uniform", "seed": null}}, "bias_initializer": {"class_name": "Zeros", "config": {}}, "kernel_regularizer": null, "bias_regularizer": null, "activity_regularizer": null, "kernel_constraint": null, "bias_constraint": null}, "inbound_nodes": [[["conv4_13_x2_zeropadding", 0, 0, {}]]]}, {"name": "concat_4_13", "class_name": "Concatenate", "config": {"name": "concat_4_13", "trainable": true, "axis": 3}, "inbound_nodes": [[["concat_4_12", 0, 0, {}], ["conv4_13_x2", 0, 0, {}]]]}, {"name": "conv4_14_x1_bn", "class_name": "BatchNormalization", "config": {"name": "conv4_14_x1_bn", "trainable": true, "axis": 3, "momentum": 0.99, "epsilon": 1.1e-05, "center": true, "scale": true, "beta_initializer": {"class_name": "Zeros", "config": {}}, "gamma_initializer": {"class_name": "Ones", "config": {}}, "moving_mean_initializer": {"class_name": "Zeros", "config": {}}, "moving_variance_initializer": {"class_name": "Ones", "config": {}}, "beta_regularizer": null, "gamma_regularizer": null, "beta_constraint": null, "gamma_constraint": null}, "inbound_nodes": [[["concat_4_13", 0, 0, {}]]]}, {"name": "conv4_14_x1_scale", "class_name": "Scale", "config": {"name": "conv4_14_x1_scale", "trainable": true, "momentum": 0.9, "axis": 3}, "inbound_nodes": [[["conv4_14_x1_bn", 0, 0, {}]]]}, {"name": "relu4_14_x1", "class_name": "Activation", "config": {"name": "relu4_14_x1", "trainable": true, "activation": "relu"}, "inbound_nodes": [[["conv4_14_x1_scale", 0, 0, {}]]]}, {"name": "conv4_14_x1", "class_name": "Conv2D", "config": {"name": "conv4_14_x1", "trainable": true, "filters": 128, "kernel_size": [1, 1], "strides": [1, 1], "padding": "valid", "data_format": "channels_last", "dilation_rate": [1, 1], "activation": "linear", "use_bias": false, "kernel_initializer": {"class_name": "VarianceScaling", "config": {"scale": 1.0, "mode": "fan_avg", "distribution": "uniform", "seed": null}}, "bias_initializer": {"class_name": "Zeros", "config": {}}, "kernel_regularizer": null, "bias_regularizer": null, "activity_regularizer": null, "kernel_constraint": null, "bias_constraint": null}, "inbound_nodes": [[["relu4_14_x1", 0, 0, {}]]]}, {"name": "conv4_14_x2_bn", "class_name": "BatchNormalization", "config": {"name": "conv4_14_x2_bn", "trainable": true, "axis": 3, "momentum": 0.99, "epsilon": 1.1e-05, "center": true, "scale": true, "beta_initializer": {"class_name": "Zeros", "config": {}}, "gamma_initializer": {"class_name": "Ones", "config": {}}, "moving_mean_initializer": {"class_name": "Zeros", "config": {}}, "moving_variance_initializer": {"class_name": "Ones", "config": {}}, "beta_regularizer": null, "gamma_regularizer": null, "beta_constraint": null, "gamma_constraint": null}, "inbound_nodes": [[["conv4_14_x1", 0, 0, {}]]]}, {"name": "conv4_14_x2_scale", "class_name": "Scale", "config": {"name": "conv4_14_x2_scale", "trainable": true, "momentum": 0.9, "axis": 3}, "inbound_nodes": [[["conv4_14_x2_bn", 0, 0, {}]]]}, {"name": "relu4_14_x2", "class_name": "Activation", "config": {"name": "relu4_14_x2", "trainable": true, "activation": "relu"}, "inbound_nodes": [[["conv4_14_x2_scale", 0, 0, {}]]]}, {"name": "conv4_14_x2_zeropadding", "class_name": "ZeroPadding2D", "config": {"name": "conv4_14_x2_zeropadding", "trainable": true, "padding": [[1, 1], [1, 1]], "data_format": "channels_last"}, "inbound_nodes": [[["relu4_14_x2", 0, 0, {}]]]}, {"name": "conv4_14_x2", "class_name": "Conv2D", "config": {"name": "conv4_14_x2", "trainable": true, "filters": 32, "kernel_size": [3, 3], "strides": [1, 1], "padding": "valid", "data_format": "channels_last", "dilation_rate": [1, 1], "activation": "linear", "use_bias": false, "kernel_initializer": {"class_name": "VarianceScaling", "config": {"scale": 1.0, "mode": "fan_avg", "distribution": "uniform", "seed": null}}, "bias_initializer": {"class_name": "Zeros", "config": {}}, "kernel_regularizer": null, "bias_regularizer": null, "activity_regularizer": null, "kernel_constraint": null, "bias_constraint": null}, "inbound_nodes": [[["conv4_14_x2_zeropadding", 0, 0, {}]]]}, {"name": "concat_4_14", "class_name": "Concatenate", "config": {"name": "concat_4_14", "trainable": true, "axis": 3}, "inbound_nodes": [[["concat_4_13", 0, 0, {}], ["conv4_14_x2", 0, 0, {}]]]}, {"name": "conv4_15_x1_bn", "class_name": "BatchNormalization", "config": {"name": "conv4_15_x1_bn", "trainable": true, "axis": 3, "momentum": 0.99, "epsilon": 1.1e-05, "center": true, "scale": true, "beta_initializer": {"class_name": "Zeros", "config": {}}, "gamma_initializer": {"class_name": "Ones", "config": {}}, "moving_mean_initializer": {"class_name": "Zeros", "config": {}}, "moving_variance_initializer": {"class_name": "Ones", "config": {}}, "beta_regularizer": null, "gamma_regularizer": null, "beta_constraint": null, "gamma_constraint": null}, "inbound_nodes": [[["concat_4_14", 0, 0, {}]]]}, {"name": "conv4_15_x1_scale", "class_name": "Scale", "config": {"name": "conv4_15_x1_scale", "trainable": true, "momentum": 0.9, "axis": 3}, "inbound_nodes": [[["conv4_15_x1_bn", 0, 0, {}]]]}, {"name": "relu4_15_x1", "class_name": "Activation", "config": {"name": "relu4_15_x1", "trainable": true, "activation": "relu"}, "inbound_nodes": [[["conv4_15_x1_scale", 0, 0, {}]]]}, {"name": "conv4_15_x1", "class_name": "Conv2D", "config": {"name": "conv4_15_x1", "trainable": true, "filters": 128, "kernel_size": [1, 1], "strides": [1, 1], "padding": "valid", "data_format": "channels_last", "dilation_rate": [1, 1], "activation": "linear", "use_bias": false, "kernel_initializer": {"class_name": "VarianceScaling", "config": {"scale": 1.0, "mode": "fan_avg", "distribution": "uniform", "seed": null}}, "bias_initializer": {"class_name": "Zeros", "config": {}}, "kernel_regularizer": null, "bias_regularizer": null, "activity_regularizer": null, "kernel_constraint": null, "bias_constraint": null}, "inbound_nodes": [[["relu4_15_x1", 0, 0, {}]]]}, {"name": "conv4_15_x2_bn", "class_name": "BatchNormalization", "config": {"name": "conv4_15_x2_bn", "trainable": true, "axis": 3, "momentum": 0.99, "epsilon": 1.1e-05, "center": true, "scale": true, "beta_initializer": {"class_name": "Zeros", "config": {}}, "gamma_initializer": {"class_name": "Ones", "config": {}}, "moving_mean_initializer": {"class_name": "Zeros", "config": {}}, "moving_variance_initializer": {"class_name": "Ones", "config": {}}, "beta_regularizer": null, "gamma_regularizer": null, "beta_constraint": null, "gamma_constraint": null}, "inbound_nodes": [[["conv4_15_x1", 0, 0, {}]]]}, {"name": "conv4_15_x2_scale", "class_name": "Scale", "config": {"name": "conv4_15_x2_scale", "trainable": true, "momentum": 0.9, "axis": 3}, "inbound_nodes": [[["conv4_15_x2_bn", 0, 0, {}]]]}, {"name": "relu4_15_x2", "class_name": "Activation", "config": {"name": "relu4_15_x2", "trainable": true, "activation": "relu"}, "inbound_nodes": [[["conv4_15_x2_scale", 0, 0, {}]]]}, {"name": "conv4_15_x2_zeropadding", "class_name": "ZeroPadding2D", "config": {"name": "conv4_15_x2_zeropadding", "trainable": true, "padding": [[1, 1], [1, 1]], "data_format": "channels_last"}, "inbound_nodes": [[["relu4_15_x2", 0, 0, {}]]]}, {"name": "conv4_15_x2", "class_name": "Conv2D", "config": {"name": "conv4_15_x2", "trainable": true, "filters": 32, "kernel_size": [3, 3], "strides": [1, 1], "padding": "valid", "data_format": "channels_last", "dilation_rate": [1, 1], "activation": "linear", "use_bias": false, "kernel_initializer": {"class_name": "VarianceScaling", "config": {"scale": 1.0, "mode": "fan_avg", "distribution": "uniform", "seed": null}}, "bias_initializer": {"class_name": "Zeros", "config": {}}, "kernel_regularizer": null, "bias_regularizer": null, "activity_regularizer": null, "kernel_constraint": null, "bias_constraint": null}, "inbound_nodes": [[["conv4_15_x2_zeropadding", 0, 0, {}]]]}, {"name": "concat_4_15", "class_name": "Concatenate", "config": {"name": "concat_4_15", "trainable": true, "axis": 3}, "inbound_nodes": [[["concat_4_14", 0, 0, {}], ["conv4_15_x2", 0, 0, {}]]]}, {"name": "conv4_16_x1_bn", "class_name": "BatchNormalization", "config": {"name": "conv4_16_x1_bn", "trainable": true, "axis": 3, "momentum": 0.99, "epsilon": 1.1e-05, "center": true, "scale": true, "beta_initializer": {"class_name": "Zeros", "config": {}}, "gamma_initializer": {"class_name": "Ones", "config": {}}, "moving_mean_initializer": {"class_name": "Zeros", "config": {}}, "moving_variance_initializer": {"class_name": "Ones", "config": {}}, "beta_regularizer": null, "gamma_regularizer": null, "beta_constraint": null, "gamma_constraint": null}, "inbound_nodes": [[["concat_4_15", 0, 0, {}]]]}, {"name": "conv4_16_x1_scale", "class_name": "Scale", "config": {"name": "conv4_16_x1_scale", "trainable": true, "momentum": 0.9, "axis": 3}, "inbound_nodes": [[["conv4_16_x1_bn", 0, 0, {}]]]}, {"name": "relu4_16_x1", "class_name": "Activation", "config": {"name": "relu4_16_x1", "trainable": true, "activation": "relu"}, "inbound_nodes": [[["conv4_16_x1_scale", 0, 0, {}]]]}, {"name": "conv4_16_x1", "class_name": "Conv2D", "config": {"name": "conv4_16_x1", "trainable": true, "filters": 128, "kernel_size": [1, 1], "strides": [1, 1], "padding": "valid", "data_format": "channels_last", "dilation_rate": [1, 1], "activation": "linear", "use_bias": false, "kernel_initializer": {"class_name": "VarianceScaling", "config": {"scale": 1.0, "mode": "fan_avg", "distribution": "uniform", "seed": null}}, "bias_initializer": {"class_name": "Zeros", "config": {}}, "kernel_regularizer": null, "bias_regularizer": null, "activity_regularizer": null, "kernel_constraint": null, "bias_constraint": null}, "inbound_nodes": [[["relu4_16_x1", 0, 0, {}]]]}, {"name": "conv4_16_x2_bn", "class_name": "BatchNormalization", "config": {"name": "conv4_16_x2_bn", "trainable": true, "axis": 3, "momentum": 0.99, "epsilon": 1.1e-05, "center": true, "scale": true, "beta_initializer": {"class_name": "Zeros", "config": {}}, "gamma_initializer": {"class_name": "Ones", "config": {}}, "moving_mean_initializer": {"class_name": "Zeros", "config": {}}, "moving_variance_initializer": {"class_name": "Ones", "config": {}}, "beta_regularizer": null, "gamma_regularizer": null, "beta_constraint": null, "gamma_constraint": null}, "inbound_nodes": [[["conv4_16_x1", 0, 0, {}]]]}, {"name": "conv4_16_x2_scale", "class_name": "Scale", "config": {"name": "conv4_16_x2_scale", "trainable": true, "momentum": 0.9, "axis": 3}, "inbound_nodes": [[["conv4_16_x2_bn", 0, 0, {}]]]}, {"name": "relu4_16_x2", "class_name": "Activation", "config": {"name": "relu4_16_x2", "trainable": true, "activation": "relu"}, "inbound_nodes": [[["conv4_16_x2_scale", 0, 0, {}]]]}, {"name": "conv4_16_x2_zeropadding", "class_name": "ZeroPadding2D", "config": {"name": "conv4_16_x2_zeropadding", "trainable": true, "padding": [[1, 1], [1, 1]], "data_format": "channels_last"}, "inbound_nodes": [[["relu4_16_x2", 0, 0, {}]]]}, {"name": "conv4_16_x2", "class_name": "Conv2D", "config": {"name": "conv4_16_x2", "trainable": true, "filters": 32, "kernel_size": [3, 3], "strides": [1, 1], "padding": "valid", "data_format": "channels_last", "dilation_rate": [1, 1], "activation": "linear", "use_bias": false, "kernel_initializer": {"class_name": "VarianceScaling", "config": {"scale": 1.0, "mode": "fan_avg", "distribution": "uniform", "seed": null}}, "bias_initializer": {"class_name": "Zeros", "config": {}}, "kernel_regularizer": null, "bias_regularizer": null, "activity_regularizer": null, "kernel_constraint": null, "bias_constraint": null}, "inbound_nodes": [[["conv4_16_x2_zeropadding", 0, 0, {}]]]}, {"name": "concat_4_16", "class_name": "Concatenate", "config": {"name": "concat_4_16", "trainable": true, "axis": 3}, "inbound_nodes": [[["concat_4_15", 0, 0, {}], ["conv4_16_x2", 0, 0, {}]]]}, {"name": "conv4_17_x1_bn", "class_name": "BatchNormalization", "config": {"name": "conv4_17_x1_bn", "trainable": true, "axis": 3, "momentum": 0.99, "epsilon": 1.1e-05, "center": true, "scale": true, "beta_initializer": {"class_name": "Zeros", "config": {}}, "gamma_initializer": {"class_name": "Ones", "config": {}}, "moving_mean_initializer": {"class_name": "Zeros", "config": {}}, "moving_variance_initializer": {"class_name": "Ones", "config": {}}, "beta_regularizer": null, "gamma_regularizer": null, "beta_constraint": null, "gamma_constraint": null}, "inbound_nodes": [[["concat_4_16", 0, 0, {}]]]}, {"name": "conv4_17_x1_scale", "class_name": "Scale", "config": {"name": "conv4_17_x1_scale", "trainable": true, "momentum": 0.9, "axis": 3}, "inbound_nodes": [[["conv4_17_x1_bn", 0, 0, {}]]]}, {"name": "relu4_17_x1", "class_name": "Activation", "config": {"name": "relu4_17_x1", "trainable": true, "activation": "relu"}, "inbound_nodes": [[["conv4_17_x1_scale", 0, 0, {}]]]}, {"name": "conv4_17_x1", "class_name": "Conv2D", "config": {"name": "conv4_17_x1", "trainable": true, "filters": 128, "kernel_size": [1, 1], "strides": [1, 1], "padding": "valid", "data_format": "channels_last", "dilation_rate": [1, 1], "activation": "linear", "use_bias": false, "kernel_initializer": {"class_name": "VarianceScaling", "config": {"scale": 1.0, "mode": "fan_avg", "distribution": "uniform", "seed": null}}, "bias_initializer": {"class_name": "Zeros", "config": {}}, "kernel_regularizer": null, "bias_regularizer": null, "activity_regularizer": null, "kernel_constraint": null, "bias_constraint": null}, "inbound_nodes": [[["relu4_17_x1", 0, 0, {}]]]}, {"name": "conv4_17_x2_bn", "class_name": "BatchNormalization", "config": {"name": "conv4_17_x2_bn", "trainable": true, "axis": 3, "momentum": 0.99, "epsilon": 1.1e-05, "center": true, "scale": true, "beta_initializer": {"class_name": "Zeros", "config": {}}, "gamma_initializer": {"class_name": "Ones", "config": {}}, "moving_mean_initializer": {"class_name": "Zeros", "config": {}}, "moving_variance_initializer": {"class_name": "Ones", "config": {}}, "beta_regularizer": null, "gamma_regularizer": null, "beta_constraint": null, "gamma_constraint": null}, "inbound_nodes": [[["conv4_17_x1", 0, 0, {}]]]}, {"name": "conv4_17_x2_scale", "class_name": "Scale", "config": {"name": "conv4_17_x2_scale", "trainable": true, "momentum": 0.9, "axis": 3}, "inbound_nodes": [[["conv4_17_x2_bn", 0, 0, {}]]]}, {"name": "relu4_17_x2", "class_name": "Activation", "config": {"name": "relu4_17_x2", "trainable": true, "activation": "relu"}, "inbound_nodes": [[["conv4_17_x2_scale", 0, 0, {}]]]}, {"name": "conv4_17_x2_zeropadding", "class_name": "ZeroPadding2D", "config": {"name": "conv4_17_x2_zeropadding", "trainable": true, "padding": [[1, 1], [1, 1]], "data_format": "channels_last"}, "inbound_nodes": [[["relu4_17_x2", 0, 0, {}]]]}, {"name": "conv4_17_x2", "class_name": "Conv2D", "config": {"name": "conv4_17_x2", "trainable": true, "filters": 32, "kernel_size": [3, 3], "strides": [1, 1], "padding": "valid", "data_format": "channels_last", "dilation_rate": [1, 1], "activation": "linear", "use_bias": false, "kernel_initializer": {"class_name": "VarianceScaling", "config": {"scale": 1.0, "mode": "fan_avg", "distribution": "uniform", "seed": null}}, "bias_initializer": {"class_name": "Zeros", "config": {}}, "kernel_regularizer": null, "bias_regularizer": null, "activity_regularizer": null, "kernel_constraint": null, "bias_constraint": null}, "inbound_nodes": [[["conv4_17_x2_zeropadding", 0, 0, {}]]]}, {"name": "concat_4_17", "class_name": "Concatenate", "config": {"name": "concat_4_17", "trainable": true, "axis": 3}, "inbound_nodes": [[["concat_4_16", 0, 0, {}], ["conv4_17_x2", 0, 0, {}]]]}, {"name": "conv4_18_x1_bn", "class_name": "BatchNormalization", "config": {"name": "conv4_18_x1_bn", "trainable": true, "axis": 3, "momentum": 0.99, "epsilon": 1.1e-05, "center": true, "scale": true, "beta_initializer": {"class_name": "Zeros", "config": {}}, "gamma_initializer": {"class_name": "Ones", "config": {}}, "moving_mean_initializer": {"class_name": "Zeros", "config": {}}, "moving_variance_initializer": {"class_name": "Ones", "config": {}}, "beta_regularizer": null, "gamma_regularizer": null, "beta_constraint": null, "gamma_constraint": null}, "inbound_nodes": [[["concat_4_17", 0, 0, {}]]]}, {"name": "conv4_18_x1_scale", "class_name": "Scale", "config": {"name": "conv4_18_x1_scale", "trainable": true, "momentum": 0.9, "axis": 3}, "inbound_nodes": [[["conv4_18_x1_bn", 0, 0, {}]]]}, {"name": "relu4_18_x1", "class_name": "Activation", "config": {"name": "relu4_18_x1", "trainable": true, "activation": "relu"}, "inbound_nodes": [[["conv4_18_x1_scale", 0, 0, {}]]]}, {"name": "conv4_18_x1", "class_name": "Conv2D", "config": {"name": "conv4_18_x1", "trainable": true, "filters": 128, "kernel_size": [1, 1], "strides": [1, 1], "padding": "valid", "data_format": "channels_last", "dilation_rate": [1, 1], "activation": "linear", "use_bias": false, "kernel_initializer": {"class_name": "VarianceScaling", "config": {"scale": 1.0, "mode": "fan_avg", "distribution": "uniform", "seed": null}}, "bias_initializer": {"class_name": "Zeros", "config": {}}, "kernel_regularizer": null, "bias_regularizer": null, "activity_regularizer": null, "kernel_constraint": null, "bias_constraint": null}, "inbound_nodes": [[["relu4_18_x1", 0, 0, {}]]]}, {"name": "conv4_18_x2_bn", "class_name": "BatchNormalization", "config": {"name": "conv4_18_x2_bn", "trainable": true, "axis": 3, "momentum": 0.99, "epsilon": 1.1e-05, "center": true, "scale": true, "beta_initializer": {"class_name": "Zeros", "config": {}}, "gamma_initializer": {"class_name": "Ones", "config": {}}, "moving_mean_initializer": {"class_name": "Zeros", "config": {}}, "moving_variance_initializer": {"class_name": "Ones", "config": {}}, "beta_regularizer": null, "gamma_regularizer": null, "beta_constraint": null, "gamma_constraint": null}, "inbound_nodes": [[["conv4_18_x1", 0, 0, {}]]]}, {"name": "conv4_18_x2_scale", "class_name": "Scale", "config": {"name": "conv4_18_x2_scale", "trainable": true, "momentum": 0.9, "axis": 3}, "inbound_nodes": [[["conv4_18_x2_bn", 0, 0, {}]]]}, {"name": "relu4_18_x2", "class_name": "Activation", "config": {"name": "relu4_18_x2", "trainable": true, "activation": "relu"}, "inbound_nodes": [[["conv4_18_x2_scale", 0, 0, {}]]]}, {"name": "conv4_18_x2_zeropadding", "class_name": "ZeroPadding2D", "config": {"name": "conv4_18_x2_zeropadding", "trainable": true, "padding": [[1, 1], [1, 1]], "data_format": "channels_last"}, "inbound_nodes": [[["relu4_18_x2", 0, 0, {}]]]}, {"name": "conv4_18_x2", "class_name": "Conv2D", "config": {"name": "conv4_18_x2", "trainable": true, "filters": 32, "kernel_size": [3, 3], "strides": [1, 1], "padding": "valid", "data_format": "channels_last", "dilation_rate": [1, 1], "activation": "linear", "use_bias": false, "kernel_initializer": {"class_name": "VarianceScaling", "config": {"scale": 1.0, "mode": "fan_avg", "distribution": "uniform", "seed": null}}, "bias_initializer": {"class_name": "Zeros", "config": {}}, "kernel_regularizer": null, "bias_regularizer": null, "activity_regularizer": null, "kernel_constraint": null, "bias_constraint": null}, "inbound_nodes": [[["conv4_18_x2_zeropadding", 0, 0, {}]]]}, {"name": "concat_4_18", "class_name": "Concatenate", "config": {"name": "concat_4_18", "trainable": true, "axis": 3}, "inbound_nodes": [[["concat_4_17", 0, 0, {}], ["conv4_18_x2", 0, 0, {}]]]}, {"name": "conv4_19_x1_bn", "class_name": "BatchNormalization", "config": {"name": "conv4_19_x1_bn", "trainable": true, "axis": 3, "momentum": 0.99, "epsilon": 1.1e-05, "center": true, "scale": true, "beta_initializer": {"class_name": "Zeros", "config": {}}, "gamma_initializer": {"class_name": "Ones", "config": {}}, "moving_mean_initializer": {"class_name": "Zeros", "config": {}}, "moving_variance_initializer": {"class_name": "Ones", "config": {}}, "beta_regularizer": null, "gamma_regularizer": null, "beta_constraint": null, "gamma_constraint": null}, "inbound_nodes": [[["concat_4_18", 0, 0, {}]]]}, {"name": "conv4_19_x1_scale", "class_name": "Scale", "config": {"name": "conv4_19_x1_scale", "trainable": true, "momentum": 0.9, "axis": 3}, "inbound_nodes": [[["conv4_19_x1_bn", 0, 0, {}]]]}, {"name": "relu4_19_x1", "class_name": "Activation", "config": {"name": "relu4_19_x1", "trainable": true, "activation": "relu"}, "inbound_nodes": [[["conv4_19_x1_scale", 0, 0, {}]]]}, {"name": "conv4_19_x1", "class_name": "Conv2D", "config": {"name": "conv4_19_x1", "trainable": true, "filters": 128, "kernel_size": [1, 1], "strides": [1, 1], "padding": "valid", "data_format": "channels_last", "dilation_rate": [1, 1], "activation": "linear", "use_bias": false, "kernel_initializer": {"class_name": "VarianceScaling", "config": {"scale": 1.0, "mode": "fan_avg", "distribution": "uniform", "seed": null}}, "bias_initializer": {"class_name": "Zeros", "config": {}}, "kernel_regularizer": null, "bias_regularizer": null, "activity_regularizer": null, "kernel_constraint": null, "bias_constraint": null}, "inbound_nodes": [[["relu4_19_x1", 0, 0, {}]]]}, {"name": "conv4_19_x2_bn", "class_name": "BatchNormalization", "config": {"name": "conv4_19_x2_bn", "trainable": true, "axis": 3, "momentum": 0.99, "epsilon": 1.1e-05, "center": true, "scale": true, "beta_initializer": {"class_name": "Zeros", "config": {}}, "gamma_initializer": {"class_name": "Ones", "config": {}}, "moving_mean_initializer": {"class_name": "Zeros", "config": {}}, "moving_variance_initializer": {"class_name": "Ones", "config": {}}, "beta_regularizer": null, "gamma_regularizer": null, "beta_constraint": null, "gamma_constraint": null}, "inbound_nodes": [[["conv4_19_x1", 0, 0, {}]]]}, {"name": "conv4_19_x2_scale", "class_name": "Scale", "config": {"name": "conv4_19_x2_scale", "trainable": true, "momentum": 0.9, "axis": 3}, "inbound_nodes": [[["conv4_19_x2_bn", 0, 0, {}]]]}, {"name": "relu4_19_x2", "class_name": "Activation", "config": {"name": "relu4_19_x2", "trainable": true, "activation": "relu"}, "inbound_nodes": [[["conv4_19_x2_scale", 0, 0, {}]]]}, {"name": "conv4_19_x2_zeropadding", "class_name": "ZeroPadding2D", "config": {"name": "conv4_19_x2_zeropadding", "trainable": true, "padding": [[1, 1], [1, 1]], "data_format": "channels_last"}, "inbound_nodes": [[["relu4_19_x2", 0, 0, {}]]]}, {"name": "conv4_19_x2", "class_name": "Conv2D", "config": {"name": "conv4_19_x2", "trainable": true, "filters": 32, "kernel_size": [3, 3], "strides": [1, 1], "padding": "valid", "data_format": "channels_last", "dilation_rate": [1, 1], "activation": "linear", "use_bias": false, "kernel_initializer": {"class_name": "VarianceScaling", "config": {"scale": 1.0, "mode": "fan_avg", "distribution": "uniform", "seed": null}}, "bias_initializer": {"class_name": "Zeros", "config": {}}, "kernel_regularizer": null, "bias_regularizer": null, "activity_regularizer": null, "kernel_constraint": null, "bias_constraint": null}, "inbound_nodes": [[["conv4_19_x2_zeropadding", 0, 0, {}]]]}, {"name": "concat_4_19", "class_name": "Concatenate", "config": {"name": "concat_4_19", "trainable": true, "axis": 3}, "inbound_nodes": [[["concat_4_18", 0, 0, {}], ["conv4_19_x2", 0, 0, {}]]]}, {"name": "conv4_20_x1_bn", "class_name": "BatchNormalization", "config": {"name": "conv4_20_x1_bn", "trainable": true, "axis": 3, "momentum": 0.99, "epsilon": 1.1e-05, "center": true, "scale": true, "beta_initializer": {"class_name": "Zeros", "config": {}}, "gamma_initializer": {"class_name": "Ones", "config": {}}, "moving_mean_initializer": {"class_name": "Zeros", "config": {}}, "moving_variance_initializer": {"class_name": "Ones", "config": {}}, "beta_regularizer": null, "gamma_regularizer": null, "beta_constraint": null, "gamma_constraint": null}, "inbound_nodes": [[["concat_4_19", 0, 0, {}]]]}, {"name": "conv4_20_x1_scale", "class_name": "Scale", "config": {"name": "conv4_20_x1_scale", "trainable": true, "momentum": 0.9, "axis": 3}, "inbound_nodes": [[["conv4_20_x1_bn", 0, 0, {}]]]}, {"name": "relu4_20_x1", "class_name": "Activation", "config": {"name": "relu4_20_x1", "trainable": true, "activation": "relu"}, "inbound_nodes": [[["conv4_20_x1_scale", 0, 0, {}]]]}, {"name": "conv4_20_x1", "class_name": "Conv2D", "config": {"name": "conv4_20_x1", "trainable": true, "filters": 128, "kernel_size": [1, 1], "strides": [1, 1], "padding": "valid", "data_format": "channels_last", "dilation_rate": [1, 1], "activation": "linear", "use_bias": false, "kernel_initializer": {"class_name": "VarianceScaling", "config": {"scale": 1.0, "mode": "fan_avg", "distribution": "uniform", "seed": null}}, "bias_initializer": {"class_name": "Zeros", "config": {}}, "kernel_regularizer": null, "bias_regularizer": null, "activity_regularizer": null, "kernel_constraint": null, "bias_constraint": null}, "inbound_nodes": [[["relu4_20_x1", 0, 0, {}]]]}, {"name": "conv4_20_x2_bn", "class_name": "BatchNormalization", "config": {"name": "conv4_20_x2_bn", "trainable": true, "axis": 3, "momentum": 0.99, "epsilon": 1.1e-05, "center": true, "scale": true, "beta_initializer": {"class_name": "Zeros", "config": {}}, "gamma_initializer": {"class_name": "Ones", "config": {}}, "moving_mean_initializer": {"class_name": "Zeros", "config": {}}, "moving_variance_initializer": {"class_name": "Ones", "config": {}}, "beta_regularizer": null, "gamma_regularizer": null, "beta_constraint": null, "gamma_constraint": null}, "inbound_nodes": [[["conv4_20_x1", 0, 0, {}]]]}, {"name": "conv4_20_x2_scale", "class_name": "Scale", "config": {"name": "conv4_20_x2_scale", "trainable": true, "momentum": 0.9, "axis": 3}, "inbound_nodes": [[["conv4_20_x2_bn", 0, 0, {}]]]}, {"name": "relu4_20_x2", "class_name": "Activation", "config": {"name": "relu4_20_x2", "trainable": true, "activation": "relu"}, "inbound_nodes": [[["conv4_20_x2_scale", 0, 0, {}]]]}, {"name": "conv4_20_x2_zeropadding", "class_name": "ZeroPadding2D", "config": {"name": "conv4_20_x2_zeropadding", "trainable": true, "padding": [[1, 1], [1, 1]], "data_format": "channels_last"}, "inbound_nodes": [[["relu4_20_x2", 0, 0, {}]]]}, {"name": "conv4_20_x2", "class_name": "Conv2D", "config": {"name": "conv4_20_x2", "trainable": true, "filters": 32, "kernel_size": [3, 3], "strides": [1, 1], "padding": "valid", "data_format": "channels_last", "dilation_rate": [1, 1], "activation": "linear", "use_bias": false, "kernel_initializer": {"class_name": "VarianceScaling", "config": {"scale": 1.0, "mode": "fan_avg", "distribution": "uniform", "seed": null}}, "bias_initializer": {"class_name": "Zeros", "config": {}}, "kernel_regularizer": null, "bias_regularizer": null, "activity_regularizer": null, "kernel_constraint": null, "bias_constraint": null}, "inbound_nodes": [[["conv4_20_x2_zeropadding", 0, 0, {}]]]}, {"name": "concat_4_20", "class_name": "Concatenate", "config": {"name": "concat_4_20", "trainable": true, "axis": 3}, "inbound_nodes": [[["concat_4_19", 0, 0, {}], ["conv4_20_x2", 0, 0, {}]]]}, {"name": "conv4_21_x1_bn", "class_name": "BatchNormalization", "config": {"name": "conv4_21_x1_bn", "trainable": true, "axis": 3, "momentum": 0.99, "epsilon": 1.1e-05, "center": true, "scale": true, "beta_initializer": {"class_name": "Zeros", "config": {}}, "gamma_initializer": {"class_name": "Ones", "config": {}}, "moving_mean_initializer": {"class_name": "Zeros", "config": {}}, "moving_variance_initializer": {"class_name": "Ones", "config": {}}, "beta_regularizer": null, "gamma_regularizer": null, "beta_constraint": null, "gamma_constraint": null}, "inbound_nodes": [[["concat_4_20", 0, 0, {}]]]}, {"name": "conv4_21_x1_scale", "class_name": "Scale", "config": {"name": "conv4_21_x1_scale", "trainable": true, "momentum": 0.9, "axis": 3}, "inbound_nodes": [[["conv4_21_x1_bn", 0, 0, {}]]]}, {"name": "relu4_21_x1", "class_name": "Activation", "config": {"name": "relu4_21_x1", "trainable": true, "activation": "relu"}, "inbound_nodes": [[["conv4_21_x1_scale", 0, 0, {}]]]}, {"name": "conv4_21_x1", "class_name": "Conv2D", "config": {"name": "conv4_21_x1", "trainable": true, "filters": 128, "kernel_size": [1, 1], "strides": [1, 1], "padding": "valid", "data_format": "channels_last", "dilation_rate": [1, 1], "activation": "linear", "use_bias": false, "kernel_initializer": {"class_name": "VarianceScaling", "config": {"scale": 1.0, "mode": "fan_avg", "distribution": "uniform", "seed": null}}, "bias_initializer": {"class_name": "Zeros", "config": {}}, "kernel_regularizer": null, "bias_regularizer": null, "activity_regularizer": null, "kernel_constraint": null, "bias_constraint": null}, "inbound_nodes": [[["relu4_21_x1", 0, 0, {}]]]}, {"name": "conv4_21_x2_bn", "class_name": "BatchNormalization", "config": {"name": "conv4_21_x2_bn", "trainable": true, "axis": 3, "momentum": 0.99, "epsilon": 1.1e-05, "center": true, "scale": true, "beta_initializer": {"class_name": "Zeros", "config": {}}, "gamma_initializer": {"class_name": "Ones", "config": {}}, "moving_mean_initializer": {"class_name": "Zeros", "config": {}}, "moving_variance_initializer": {"class_name": "Ones", "config": {}}, "beta_regularizer": null, "gamma_regularizer": null, "beta_constraint": null, "…
"scale": true, "beta_initializer": {"class_name": "Zeros", "config": {}}, "gamma_initializer": {"class_name": "Ones", "config": {}}, "moving_mean_initializer": {"class_name": "Zeros", "config": {}}, "moving_variance_initializer": {"class_name": "Ones", "config": {}}, "beta_regularizer": null, "gamma_regularizer": null, "beta_constraint": null, "gamma_constraint": null}, "inbound_nodes": [[["conv5_4_x1", 0, 0, {}]]]}, {"name": "conv5_4_x2_scale", "class_name": "Scale", "config": {"name": "conv5_4_x2_scale", "trainable": true, "momentum": 0.9, "axis": 3}, "inbound_nodes": [[["conv5_4_x2_bn", 0, 0, {}]]]}, {"name": "relu5_4_x2", "class_name": "Activation", "config": {"name": "relu5_4_x2", "trainable": true, "activation": "relu"}, "inbound_nodes": [[["conv5_4_x2_scale", 0, 0, {}]]]}, {"name": "conv5_4_x2_zeropadding", "class_name": "ZeroPadding2D", "config": {"name": "conv5_4_x2_zeropadding", "trainable": true, "padding": [[1, 1], [1, 1]], "data_format": "channels_last"}, "inbound_nodes": [[["relu5_4_x2", 0, 0, {}]]]}, {"name": "conv5_4_x2", "class_name": "Conv2D", "config": {"name": "conv5_4_x2", "trainable": true, "filters": 32, "kernel_size": [3, 3], "strides": [1, 1], "padding": "valid", "data_format": "channels_last", "dilation_rate": [1, 1], "activation": "linear", "use_bias": false, "kernel_initializer": {"class_name": "VarianceScaling", "config": {"scale": 1.0, "mode": "fan_avg", "distribution": "uniform", "seed": null}}, "bias_initializer": {"class_name": "Zeros", "config": {}}, "kernel_regularizer": null, "bias_regularizer": null, "activity_regularizer": null, "kernel_constraint": null, "bias_constraint": null}, "inbound_nodes": [[["conv5_4_x2_zeropadding", 0, 0, {}]]]}, {"name": "concat_5_4", "class_name": "Concatenate", "config": {"name": "concat_5_4", "trainable": true, "axis": 3}, "inbound_nodes": [[["concat_5_3", 0, 0, {}], ["conv5_4_x2", 0, 0, {}]]]}, {"name": "conv5_5_x1_bn", "class_name": "BatchNormalization", "config": {"name": "conv5_5_x1_bn", "trainable": true, "axis": 3, "momentum": 0.99, "epsilon": 1.1e-05, "center": true, "scale": true, "beta_initializer": {"class_name": "Zeros", "config": {}}, "gamma_initializer": {"class_name": "Ones", "config": {}}, "moving_mean_initializer": {"class_name": "Zeros", "config": {}}, "moving_variance_initializer": {"class_name": "Ones", "config": {}}, "beta_regularizer": null, "gamma_regularizer": null, "beta_constraint": null, "gamma_constraint": null}, "inbound_nodes": [[["concat_5_4", 0, 0, {}]]]}, {"name": "conv5_5_x1_scale", "class_name": "Scale", "config": {"name": "conv5_5_x1_scale", "trainable": true, "momentum": 0.9, "axis": 3}, "inbound_nodes": [[["conv5_5_x1_bn", 0, 0, {}]]]}, {"name": "relu5_5_x1", "class_name": "Activation", "config": {"name": "relu5_5_x1", "trainable": true, "activation": "relu"}, "inbound_nodes": [[["conv5_5_x1_scale", 0, 0, {}]]]}, {"name": "conv5_5_x1", "class_name": "Conv2D", "config": {"name": "conv5_5_x1", "trainable": true, "filters": 128, "kernel_size": [1, 1], "strides": [1, 1], "padding": "valid", "data_format": "channels_last", "dilation_rate": [1, 1], "activation": "linear", "use_bias": false, "kernel_initializer": {"class_name": "VarianceScaling", "config": {"scale": 1.0, "mode": "fan_avg", "distribution": "uniform", "seed": null}}, "bias_initializer": {"class_name": "Zeros", "config": {}}, "kernel_regularizer": null, "bias_regularizer": null, "activity_regularizer": null, "kernel_constraint": null, "bias_constraint": null}, "inbound_nodes": [[["relu5_5_x1", 0, 0, {}]]]}, {"name": "conv5_5_x2_bn", "class_name": "BatchNormalization", "config": {"name": "conv5_5_x2_bn", "trainable": true, "axis": 3, "momentum": 0.99, "epsilon": 1.1e-05, "center": true, "scale": true, "beta_initializer": {"class_name": "Zeros", "config": {}}, "gamma_initializer": {"class_name": "Ones", "config": {}}, "moving_mean_initializer": {"class_name": "Zeros", "config": {}}, "moving_variance_initializer": {"class_name": "Ones", "config": {}}, "beta_regularizer": null, "gamma_regularizer": null, "beta_constraint": null, "gamma_constraint": null}, "inbound_nodes": [[["conv5_5_x1", 0, 0, {}]]]}, {"name": "conv5_5_x2_scale", "class_name": "Scale", "config": {"name": "conv5_5_x2_scale", "trainable": true, "momentum": 0.9, "axis": 3}, "inbound_nodes": [[["conv5_5_x2_bn", 0, 0, {}]]]}, {"name": "relu5_5_x2", "class_name": "Activation", "config": {"name": "relu5_5_x2", "trainable": true, "activation": "relu"}, "inbound_nodes": [[["conv5_5_x2_scale", 0, 0, {}]]]}, {"name": "conv5_5_x2_zeropadding", "class_name": "ZeroPadding2D", "config": {"name": "conv5_5_x2_zeropadding", "trainable": true, "padding": [[1, 1], [1, 1]], "data_format": "channels_last"}, "inbound_nodes": [[["relu5_5_x2", 0, 0, {}]]]}, {"name": "conv5_5_x2", "class_name": "Conv2D", "config": {"name": "conv5_5_x2", "trainable": true, "filters": 32, "kernel_size": [3, 3], "strides": [1, 1], "padding": "valid", "data_format": "channels_last", "dilation_rate": [1, 1], "activation": "linear", "use_bias": false, "kernel_initializer": {"class_name": "VarianceScaling", "config": {"scale": 1.0, "mode": "fan_avg", "distribution": "uniform", "seed": null}}, "bias_initializer": {"class_name": "Zeros", "config": {}}, "kernel_regularizer": null, "bias_regularizer": null, "activity_regularizer": null, "kernel_constraint": null, "bias_constraint": null}, "inbound_nodes": [[["conv5_5_x2_zeropadding", 0, 0, {}]]]}, {"name": "concat_5_5", "class_name": "Concatenate", "config": {"name": "concat_5_5", "trainable": true, "axis": 3}, "inbound_nodes": [[["concat_5_4", 0, 0, {}], ["conv5_5_x2", 0, 0, {}]]]}, {"name": "conv5_6_x1_bn", "class_name": "BatchNormalization", "config": {"name": "conv5_6_x1_bn", "trainable": true, "axis": 3, "momentum": 0.99, "epsilon": 1.1e-05, "center": true, "scale": true, "beta_initializer": {"class_name": "Zeros", "config": {}}, "gamma_initializer": {"class_name": "Ones", "config": {}}, "moving_mean_initializer": {"class_name": "Zeros", "config": {}}, "moving_variance_initializer": {"class_name": "Ones", "config": {}}, "beta_regularizer": null, "gamma_regularizer": null, "beta_constraint": null, "gamma_constraint": null}, "inbound_nodes": [[["concat_5_5", 0, 0, {}]]]}, {"name": "conv5_6_x1_scale", "class_name": "Scale", "config": {"name": "conv5_6_x1_scale", "trainable": true, "momentum": 0.9, "axis": 3}, "inbound_nodes": [[["conv5_6_x1_bn", 0, 0, {}]]]}, {"name": "relu5_6_x1", "class_name": "Activation", "config": {"name": "relu5_6_x1", "trainable": true, "activation": "relu"}, "inbound_nodes": [[["conv5_6_x1_scale", 0, 0, {}]]]}, {"name": "conv5_6_x1", "class_name": "Conv2D", "config": {"name": "conv5_6_x1", "trainable": true, "filters": 128, "kernel_size": [1, 1], "strides": [1, 1], "padding": "valid", "data_format": "channels_last", "dilation_rate": [1, 1], "activation": "linear", "use_bias": false, "kernel_initializer": {"class_name": "VarianceScaling", "config": {"scale": 1.0, "mode": "fan_avg", "distribution": "uniform", "seed": null}}, "bias_initializer": {"class_name": "Zeros", "config": {}}, "kernel_regularizer": null, "bias_regularizer": null, "activity_regularizer": null, "kernel_constraint": null, "bias_constraint": null}, "inbound_nodes": [[["relu5_6_x1", 0, 0, {}]]]}, {"name": "conv5_6_x2_bn", "class_name": "BatchNormalization", "config": {"name": "conv5_6_x2_bn", "trainable": true, "axis": 3, "momentum": 0.99, "epsilon": 1.1e-05, "center": true, "scale": true, "beta_initializer": {"class_name": "Zeros", "config": {}}, "gamma_initializer": {"class_name": "Ones", "config": {}}, "moving_mean_initializer": {"class_name": "Zeros", "config": {}}, "moving_variance_initializer": {"class_name": "Ones", "config": {}}, "beta_regularizer": null, "gamma_regularizer": null, "beta_constraint": null, "gamma_constraint": null}, "inbound_nodes": [[["conv5_6_x1", 0, 0, {}]]]}, {"name": "conv5_6_x2_scale", "class_name": "Scale", "config": {"name": "conv5_6_x2_scale", "trainable": true, "momentum": 0.9, "axis": 3}, "inbound_nodes": [[["conv5_6_x2_bn", 0, 0, {}]]]}, {"name": "relu5_6_x2", "class_name": "Activation", "config": {"name": "relu5_6_x2", "trainable": true, "activation": "relu"}, "inbound_nodes": [[["conv5_6_x2_scale", 0, 0, {}]]]}, {"name": "conv5_6_x2_zeropadding", "class_name": "ZeroPadding2D", "config": {"name": "conv5_6_x2_zeropadding", "trainable": true, "padding": [[1, 1], [1, 1]], "data_format": "channels_last"}, "inbound_nodes": [[["relu5_6_x2", 0, 0, {}]]]}, {"name": "conv5_6_x2", "class_name": "Conv2D", "config": {"name": "conv5_6_x2", "trainable": true, "filters": 32, "kernel_size": [3, 3], "strides": [1, 1], "padding": "valid", "data_format": "channels_last", "dilation_rate": [1, 1], "activation": "linear", "use_bias": false, "kernel_initializer": {"class_name": "VarianceScaling", "config": {"scale": 1.0, "mode": "fan_avg", "distribution": "uniform", "seed": null}}, "bias_initializer": {"class_name": "Zeros", "config": {}}, "kernel_regularizer": null, "bias_regularizer": null, "activity_regularizer": null, "kernel_constraint": null, "bias_constraint": null}, "inbound_nodes": [[["conv5_6_x2_zeropadding", 0, 0, {}]]]}, {"name": "concat_5_6", "class_name": "Concatenate", "config": {"name": "concat_5_6", "trainable": true, "axis": 3}, "inbound_nodes": [[["concat_5_5", 0, 0, {}], ["conv5_6_x2", 0, 0, {}]]]}, {"name": "conv5_7_x1_bn", "class_name": "BatchNormalization", "config": {"name": "conv5_7_x1_bn", "trainable": true, "axis": 3, "momentum": 0.99, "epsilon": 1.1e-05, "center": true, "scale": true, "beta_initializer": {"class_name": "Zeros", "config": {}}, "gamma_initializer": {"class_name": "Ones", "config": {}}, "moving_mean_initializer": {"class_name": "Zeros", "config": {}}, "moving_variance_initializer": {"class_name": "Ones", "config": {}}, "beta_regularizer": null, "gamma_regularizer": null, "beta_constraint": null, "gamma_constraint": null}, "inbound_nodes": [[["concat_5_6", 0, 0, {}]]]}, {"name": "conv5_7_x1_scale", "class_name": "Scale", "config": {"name": "conv5_7_x1_scale", "trainable": true, "momentum": 0.9, "axis": 3}, "inbound_nodes": [[["conv5_7_x1_bn", 0, 0, {}]]]}, {"name": "relu5_7_x1", "class_name": "Activation", "config": {"name": "relu5_7_x1", "trainable": true, "activation": "relu"}, "inbound_nodes": [[["conv5_7_x1_scale", 0, 0, {}]]]}, {"name": "conv5_7_x1", "class_name": "Conv2D", "config": {"name": "conv5_7_x1", "trainable": true, "filters": 128, "kernel_size": [1, 1], "strides": [1, 1], "padding": "valid", "data_format": "channels_last", "dilation_rate": [1, 1], "activation": "linear", "use_bias": false, "kernel_initializer": {"class_name": "VarianceScaling", "config": {"scale": 1.0, "mode": "fan_avg", "distribution": "uniform", "seed": null}}, "bias_initializer": {"class_name": "Zeros", "config": {}}, "kernel_regularizer": null, "bias_regularizer": null, "activity_regularizer": null, "kernel_constraint": null, "bias_constraint": null}, "inbound_nodes": [[["relu5_7_x1", 0, 0, {}]]]}, {"name": "conv5_7_x2_bn", "class_name": "BatchNormalization", "config": {"name": "conv5_7_x2_bn", "trainable": true, "axis": 3, "momentum": 0.99, "epsilon": 1.1e-05, "center": true, "scale": true, "beta_initializer": {"class_name": "Zeros", "config": {}}, "gamma_initializer": {"class_name": "Ones", "config": {}}, "moving_mean_initializer": {"class_name": "Zeros", "config": {}}, "moving_variance_initializer": {"class_name": "Ones", "config": {}}, "beta_regularizer": null, "gamma_regularizer": null, "beta_constraint": null, "gamma_constraint": null}, "inbound_nodes": [[["conv5_7_x1", 0, 0, {}]]]}, {"name": "conv5_7_x2_scale", "class_name": "Scale", "config": {"name": "conv5_7_x2_scale", "trainable": true, "momentum": 0.9, "axis": 3}, "inbound_nodes": [[["conv5_7_x2_bn", 0, 0, {}]]]}, {"name": "relu5_7_x2", "class_name": "Activation", "config": {"name": "relu5_7_x2", "trainable": true, "activation": "relu"}, "inbound_nodes": [[["conv5_7_x2_scale", 0, 0, {}]]]}, {"name": "conv5_7_x2_zeropadding", "class_name": "ZeroPadding2D", "config": {"name": "conv5_7_x2_zeropadding", "trainable": true, "padding": [[1, 1], [1, 1]], "data_format": "channels_last"}, "inbound_nodes": [[["relu5_7_x2", 0, 0, {}]]]}, {"name": "conv5_7_x2", "class_name": "Conv2D", "config": {"name": "conv5_7_x2", "trainable": true, "filters": 32, "kernel_size": [3, 3], "strides": [1, 1], "padding": "valid", "data_format": "channels_last", "dilation_rate": [1, 1], "activation": "linear", "use_bias": false, "kernel_initializer": {"class_name": "VarianceScaling", "config": {"scale": 1.0, "mode": "fan_avg", "distribution": "uniform", "seed": null}}, "bias_initializer": {"class_name": "Zeros", "config": {}}, "kernel_regularizer": null, "bias_regularizer": null, "activity_regularizer": null, "kernel_constraint": null, "bias_constraint": null}, "inbound_nodes": [[["conv5_7_x2_zeropadding", 0, 0, {}]]]}, {"name": "concat_5_7", "class_name": "Concatenate", "config": {"name": "concat_5_7", "trainable": true, "axis": 3}, "inbound_nodes": [[["concat_5_6", 0, 0, {}], ["conv5_7_x2", 0, 0, {}]]]}, {"name": "conv5_8_x1_bn", "class_name": "BatchNormalization", "config": {"name": "conv5_8_x1_bn", "trainable": true, "axis": 3, "momentum": 0.99, "epsilon": 1.1e-05, "center": true, "scale": true, "beta_initializer": {"class_name": "Zeros", "config": {}}, "gamma_initializer": {"class_name": "Ones", "config": {}}, "moving_mean_initializer": {"class_name": "Zeros", "config": {}}, "moving_variance_initializer": {"class_name": "Ones", "config": {}}, "beta_regularizer": null, "gamma_regularizer": null, "beta_constraint": null, "gamma_constraint": null}, "inbound_nodes": [[["concat_5_7", 0, 0, {}]]]}, {"name": "conv5_8_x1_scale", "class_name": "Scale", "config": {"name": "conv5_8_x1_scale", "trainable": true, "momentum": 0.9, "axis": 3}, "inbound_nodes": [[["conv5_8_x1_bn", 0, 0, {}]]]}, {"name": "relu5_8_x1", "class_name": "Activation", "config": {"name": "relu5_8_x1", "trainable": true, "activation": "relu"}, "inbound_nodes": [[["conv5_8_x1_scale", 0, 0, {}]]]}, {"name": "conv5_8_x1", "class_name": "Conv2D", "config": {"name": "conv5_8_x1", "trainable": true, "filters": 128, "kernel_size": [1, 1], "strides": [1, 1], "padding": "valid", "data_format": "channels_last", "dilation_rate": [1, 1], "activation": "linear", "use_bias": false, "kernel_initializer": {"class_name": "VarianceScaling", "config": {"scale": 1.0, "mode": "fan_avg", "distribution": "uniform", "seed": null}}, "bias_initializer": {"class_name": "Zeros", "config": {}}, "kernel_regularizer": null, "bias_regularizer": null, "activity_regularizer": null, "kernel_constraint": null, "bias_constraint": null}, "inbound_nodes": [[["relu5_8_x1", 0, 0, {}]]]}, {"name": "conv5_8_x2_bn", "class_name": "BatchNormalization", "config": {"name": "conv5_8_x2_bn", "trainable": true, "axis": 3, "momentum": 0.99, "epsilon": 1.1e-05, "center": true, "scale": true, "beta_initializer": {"class_name": "Zeros", "config": {}}, "gamma_initializer": {"class_name": "Ones", "config": {}}, "moving_mean_initializer": {"class_name": "Zeros", "config": {}}, "moving_variance_initializer": {"class_name": "Ones", "config": {}}, "beta_regularizer": null, "gamma_regularizer": null, "beta_constraint": null, "gamma_constraint": null}, "inbound_nodes": [[["conv5_8_x1", 0, 0, {}]]]}, {"name": "conv5_8_x2_scale", "class_name": "Scale", "config": {"name": "conv5_8_x2_scale", "trainable": true, "momentum": 0.9, "axis": 3}, "inbound_nodes": [[["conv5_8_x2_bn", 0, 0, {}]]]}, {"name": "relu5_8_x2", "class_name": "Activation", "config": {"name": "relu5_8_x2", "trainable": true, "activation": "relu"}, "inbound_nodes": [[["conv5_8_x2_scale", 0, 0, {}]]]}, {"name": "conv5_8_x2_zeropadding", "class_name": "ZeroPadding2D", "config": {"name": "conv5_8_x2_zeropadding", "trainable": true, "padding": [[1, 1], [1, 1]], "data_format": "channels_last"}, "inbound_nodes": [[["relu5_8_x2", 0, 0, {}]]]}, {"name": "conv5_8_x2", "class_name": "Conv2D", "config": {"name": "conv5_8_x2", "trainable": true, "filters": 32, "kernel_size": [3, 3], "strides": [1, 1], "padding": "valid", "data_format": "channels_last", "dilation_rate": [1, 1], "activation": "linear", "use_bias": false, "kernel_initializer": {"class_name": "VarianceScaling", "config": {"scale": 1.0, "mode": "fan_avg", "distribution": "uniform", "seed": null}}, "bias_initializer": {"class_name": "Zeros", "config": {}}, "kernel_regularizer": null, "bias_regularizer": null, "activity_regularizer": null, "kernel_constraint": null, "bias_constraint": null}, "inbound_nodes": [[["conv5_8_x2_zeropadding", 0, 0, {}]]]}, {"name": "concat_5_8", "class_name": "Concatenate", "config": {"name": "concat_5_8", "trainable": true, "axis": 3}, "inbound_nodes": [[["concat_5_7", 0, 0, {}], ["conv5_8_x2", 0, 0, {}]]]}, {"name": "conv5_9_x1_bn", "class_name": "BatchNormalization", "config": {"name": "conv5_9_x1_bn", "trainable": true, "axis": 3, "momentum": 0.99, "epsilon": 1.1e-05, "center": true, "scale": true, "beta_initializer": {"class_name": "Zeros", "config": {}}, "gamma_initializer": {"class_name": "Ones", "config": {}}, "moving_mean_initializer": {"class_name": "Zeros", "config": {}}, "moving_variance_initializer": {"class_name": "Ones", "config": {}}, "beta_regularizer": null, "gamma_regularizer": null, "beta_constraint": null, "gamma_constraint": null}, "inbound_nodes": [[["concat_5_8", 0, 0, {}]]]}, {"name": "conv5_9_x1_scale", "class_name": "Scale", "config": {"name": "conv5_9_x1_scale", "trainable": true, "momentum": 0.9, "axis": 3}, "inbound_nodes": [[["conv5_9_x1_bn", 0, 0, {}]]]}, {"name": "relu5_9_x1", "class_name": "Activation", "config": {"name": "relu5_9_x1", "trainable": true, "activation": "relu"}, "inbound_nodes": [[["conv5_9_x1_scale", 0, 0, {}]]]}, {"name": "conv5_9_x1", "class_name": "Conv2D", "config": {"name": "conv5_9_x1", "trainable": true, "filters": 128, "kernel_size": [1, 1], "strides": [1, 1], "padding": "valid", "data_format": "channels_last", "dilation_rate": [1, 1], "activation": "linear", "use_bias": false, "kernel_initializer": {"class_name": "VarianceScaling", "config": {"scale": 1.0, "mode": "fan_avg", "distribution": "uniform", "seed": null}}, "bias_initializer": {"class_name": "Zeros", "config": {}}, "kernel_regularizer": null, "bias_regularizer": null, "activity_regularizer": null, "kernel_constraint": null, "bias_constraint": null}, "inbound_nodes": [[["relu5_9_x1", 0, 0, {}]]]}, {"name": "conv5_9_x2_bn", "class_name": "BatchNormalization", "config": {"name": "conv5_9_x2_bn", "trainable": true, "axis": 3, "momentum": 0.99, "epsilon": 1.1e-05, "center": true, "scale": true, "beta_initializer": {"class_name": "Zeros", "config": {}}, "gamma_initializer": {"class_name": "Ones", "config": {}}, "moving_mean_initializer": {"class_name": "Zeros", "config": {}}, "moving_variance_initializer": {"class_name": "Ones", "config": {}}, "beta_regularizer": null, "gamma_regularizer": null, "beta_constraint": null, "gamma_constraint": null}, "inbound_nodes": [[["conv5_9_x1", 0, 0, {}]]]}, {"name": "conv5_9_x2_scale", "class_name": "Scale", "config": {"name": "conv5_9_x2_scale", "trainable": true, "momentum": 0.9, "axis": 3}, "inbound_nodes": [[["conv5_9_x2_bn", 0, 0, {}]]]}, {"name": "relu5_9_x2", "class_name": "Activation", "config": {"name": "relu5_9_x2", "trainable": true, "activation": "relu"}, "inbound_nodes": [[["conv5_9_x2_scale", 0, 0, {}]]]}, {"name": "conv5_9_x2_zeropadding", "class_name": "ZeroPadding2D", "config": {"name": "conv5_9_x2_zeropadding", "trainable": true, "padding": [[1, 1], [1, 1]], "data_format": "channels_last"}, "inbound_nodes": [[["relu5_9_x2", 0, 0, {}]]]}, {"name": "conv5_9_x2", "class_name": "Conv2D", "config": {"name": "conv5_9_x2", "trainable": true, "filters": 32, "kernel_size": [3, 3], "strides": [1, 1], "padding": "valid", "data_format": "channels_last", "dilation_rate": [1, 1], "activation": "linear", "use_bias": false, "kernel_initializer": {"class_name": "VarianceScaling", "config": {"scale": 1.0, "mode": "fan_avg", "distribution": "uniform", "seed": null}}, "bias_initializer": {"class_name": "Zeros", "config": {}}, "kernel_regularizer": null, "bias_regularizer": null, "activity_regularizer": null, "kernel_constraint": null, "bias_constraint": null}, "inbound_nodes": [[["conv5_9_x2_zeropadding", 0, 0, {}]]]}, {"name": "concat_5_9", "class_name": "Concatenate", "config": {"name": "concat_5_9", "trainable": true, "axis": 3}, "inbound_nodes": [[["concat_5_8", 0, 0, {}], ["conv5_9_x2", 0, 0, {}]]]}, {"name": "conv5_10_x1_bn", "class_name": "BatchNormalization", "config": {"name": "conv5_10_x1_bn", "trainable": true, "axis": 3, "momentum": 0.99, "epsilon": 1.1e-05, "center": true, "scale": true, "beta_initializer": {"class_name": "Zeros", "config": {}}, "gamma_initializer": {"class_name": "Ones", "config": {}}, "moving_mean_initializer": {"class_name": "Zeros", "config": {}}, "moving_variance_initializer": {"class_name": "Ones", "config": {}}, "beta_regularizer": null, "gamma_regularizer": null, "beta_constraint": null, "gamma_constraint": null}, "inbound_nodes": [[["concat_5_9", 0, 0, {}]]]}, {"name": "conv5_10_x1_scale", "class_name": "Scale", "config": {"name": "conv5_10_x1_scale", "trainable": true, "momentum": 0.9, "axis": 3}, "inbound_nodes": [[["conv5_10_x1_bn", 0, 0, {}]]]}, {"name": "relu5_10_x1", "class_name": "Activation", "config": {"name": "relu5_10_x1", "trainable": true, "activation": "relu"}, "inbound_nodes": [[["conv5_10_x1_scale", 0, 0, {}]]]}, {"name": "conv5_10_x1", "class_name": "Conv2D", "config": {"name": "conv5_10_x1", "trainable": true, "filters": 128, "kernel_size": [1, 1], "strides": [1, 1], "padding": "valid", "data_format": "channels_last", "dilation_rate": [1, 1], "activation": "linear", "use_bias": false, "kernel_initializer": {"class_name": "VarianceScaling", "config": {"scale": 1.0, "mode": "fan_avg", "distribution": "uniform", "seed": null}}, "bias_initializer": {"class_name": "Zeros", "config": {}}, "kernel_regularizer": null, "bias_regularizer": null, "activity_regularizer": null, "kernel_constraint": null, "bias_constraint": null}, "inbound_nodes": [[["relu5_10_x1", 0, 0, {}]]]}, {"name": "conv5_10_x2_bn", "class_name": "BatchNormalization", "config": {"name": "conv5_10_x2_bn", "trainable": true, "axis": 3, "momentum": 0.99, "epsilon": 1.1e-05, "center": true, "scale": true, "beta_initializer": {"class_name": "Zeros", "config": {}}, "gamma_initializer": {"class_name": "Ones", "config": {}}, "moving_mean_initializer": {"class_name": "Zeros", "config": {}}, "moving_variance_initializer": {"class_name": "Ones", "config": {}}, "beta_regularizer": null, "gamma_regularizer": null, "beta_constraint": null, "gamma_constraint": null}, "inbound_nodes": [[["conv5_10_x1", 0, 0, {}]]]}, {"name": "conv5_10_x2_scale", "class_name": "Scale", "config": {"name": "conv5_10_x2_scale", "trainable": true, "momentum": 0.9, "axis": 3}, "inbound_nodes": [[["conv5_10_x2_bn", 0, 0, {}]]]}, {"name": "relu5_10_x2", "class_name": "Activation", "config": {"name": "relu5_10_x2", "trainable": true, "activation": "relu"}, "inbound_nodes": [[["conv5_10_x2_scale", 0, 0, {}]]]}, {"name": "conv5_10_x2_zeropadding", "class_name": "ZeroPadding2D", "config": {"name": "conv5_10_x2_zeropadding", "trainable": true, "padding": [[1, 1], [1, 1]], "data_format": "channels_last"}, "inbound_nodes": [[["relu5_10_x2", 0, 0, {}]]]}, {"name": "conv5_10_x2", "class_name": "Conv2D", "config": {"name": "conv5_10_x2", "trainable": true, "filters": 32, "kernel_size": [3, 3], "strides": [1, 1], "padding": "valid", "data_format": "channels_last", "dilation_rate": [1, 1], "activation": "linear", "use_bias": false, "kernel_initializer": {"class_name": "VarianceScaling", "config": {"scale": 1.0, "mode": "fan_avg", "distribution": "uniform", "seed": null}}, "bias_initializer": {"class_name": "Zeros", "config": {}}, "kernel_regularizer": null, "bias_regularizer": null, "activity_regularizer": null, "kernel_constraint": null, "bias_constraint": null}, "inbound_nodes": [[["conv5_10_x2_zeropadding", 0, 0, {}]]]}, {"name": "concat_5_10", "class_name": "Concatenate", "config": {"name": "concat_5_10", "trainable": true, "axis": 3}, "inbound_nodes": [[["concat_5_9", 0, 0, {}], ["conv5_10_x2", 0, 0, {}]]]}, {"name": "conv5_11_x1_bn", "class_name": "BatchNormalization", "config": {"name": "conv5_11_x1_bn", "trainable": true, "axis": 3, "momentum": 0.99, "epsilon": 1.1e-05, "center": true, "scale": true, "beta_initializer": {"class_name": "Zeros", "config": {}}, "gamma_initializer": {"class_name": "Ones", "config": {}}, "moving_mean_initializer": {"class_name": "Zeros", "config": {}}, "moving_variance_initializer": {"class_name": "Ones", "config": {}}, "beta_regularizer": null, "gamma_regularizer": null, "beta_constraint": null, "gamma_constraint": null}, "inbound_nodes": [[["concat_5_10", 0, 0, {}]]]}, {"name": "conv5_11_x1_scale", "class_name": "Scale", "config": {"name": "conv5_11_x1_scale", "trainable": true, "momentum": 0.9, "axis": 3}, "inbound_nodes": [[["conv5_11_x1_bn", 0, 0, {}]]]}, {"name": "relu5_11_x1", "class_name": "Activation", "config": {"name": "relu5_11_x1", "trainable": true, "activation": "relu"}, "inbound_nodes": [[["conv5_11_x1_scale", 0, 0, {}]]]}, {"name": "conv5_11_x1", "class_name": "Conv2D", "config": {"name": "conv5_11_x1", "trainable": true, "filters": 128, "kernel_size": [1, 1], "strides": [1, 1], "padding": "valid", "data_format": "channels_last", "dilation_rate": [1, 1], "activation": "linear", "use_bias": false, "kernel_initializer": {"class_name": "VarianceScaling", "config": {"scale": 1.0, "mode": "fan_avg", "distribution": "uniform", "seed": null}}, "bias_initializer": {"class_name": "Zeros", "config": {}}, "kernel_regularizer": null, "bias_regularizer": null, "activity_regularizer": null, "kernel_constraint": null, "bias_constraint": null}, "inbound_nodes": [[["relu5_11_x1", 0, 0, {}]]]}, {"name": "conv5_11_x2_bn", "class_name": "BatchNormalization", "config": {"name": "conv5_11_x2_bn", "trainable": true, "axis": 3, "momentum": 0.99, "epsilon": 1.1e-05, "center": true, "scale": true, "beta_initializer": {"class_name": "Zeros", "config": {}}, "gamma_initializer": {"class_name": "Ones", "config": {}}, "moving_mean_initializer": {"class_name": "Zeros", "config": {}}, "moving_variance_initializer": {"class_name": "Ones", "config": {}}, "beta_regularizer": null, "gamma_regularizer": null, "beta_constraint": null, "gamma_constraint": null}, "inbound_nodes": [[["conv5_11_x1", 0, 0, {}]]]}, {"name": "conv5_11_x2_scale", "class_name": "Scale", "config": {"name": "conv5_11_x2_scale", "trainable": true, "momentum": 0.9, "axis": 3}, "inbound_nodes": [[["conv5_11_x2_bn", 0, 0, {}]]]}, {"name": "relu5_11_x2", "class_name": "Activation", "config": {"name": "relu5_11_x2", "trainable": true, "activation": "relu"}, "inbound_nodes": [[["conv5_11_x2_scale", 0, 0, {}]]]}, {"name": "conv5_11_x2_zeropadding", "class_name": "ZeroPadding2D", "config": {"name": "conv5_11_x2_zeropadding", "trainable": true, "padding": [[1, 1], [1, 1]], "data_format": "channels_last"}, "inbound_nodes": [[["relu5_11_x2", 0, 0, {}]]]}, {"name": "conv5_11_x2", "class_name": "Conv2D", "config": {"name": "conv5_11_x2", "trainable": true, "filters": 32, "kernel_size": [3, 3], "strides": [1, 1], "padding": "valid", "data_format": "channels_last", "dilation_rate": [1, 1], "activation": "linear", "use_bias": false, "kernel_initializer": {"class_name": "VarianceScaling", "config": {"scale": 1.0, "mode": "fan_avg", "distribution": "uniform", "seed": null}}, "bias_initializer": {"class_name": "Zeros", "config": {}}, "kernel_regularizer": null, "bias_regularizer": null, "activity_regularizer": null, "kernel_constraint": null, "bias_constraint": null}, "inbound_nodes": [[["conv5_11_x2_zeropadding", 0, 0, {}]]]}, {"name": "concat_5_11", "class_name": "Concatenate", "config": {"name": "concat_5_11", "trainable": true, "axis": 3}, "inbound_nodes": [[["concat_5_10", 0, 0, {}], ["conv5_11_x2", 0, 0, {}]]]}, {"name": "conv5_12_x1_bn", "class_name": "BatchNormalization", "config": {"name": "conv5_12_x1_bn", "trainable": true, "axis": 3, "momentum": 0.99, "epsilon": 1.1e-05, "center": true, "scale": true, "beta_initializer": {"class_name": "Zeros", "config": {}}, "gamma_initializer": {"class_name": "Ones", "config": {}}, "moving_mean_initializer": {"class_name": "Zeros", "config": {}}, "moving_variance_initializer": {"class_name": "Ones", "config": {}}, "beta_regularizer": null, "gamma_regularizer": null, "beta_constraint": null, "gamma_constraint": null}, "inbound_nodes": [[["concat_5_11", 0, 0, {}]]]}, {"name": "conv5_12_x1_scale", "class_name": "Scale", "config": {"name": "conv5_12_x1_scale", "trainable": true, "momentum": 0.9, "axis": 3}, "inbound_nodes": [[["conv5_12_x1_bn", 0, 0, {}]]]}, {"name": "relu5_12_x1", "class_name": "Activation", "config": {"name": "relu5_12_x1", "trainable": true, "activation": "relu"}, "inbound_nodes": [[["conv5_12_x1_scale", 0, 0, {}]]]}, {"name": "conv5_12_x1", "class_name": "Conv2D", "config": {"name": "conv5_12_x1", "trainable": true, "filters": 128, "kernel_size": [1, 1], "strides": [1, 1], "padding": "valid", "data_format": "channels_last", "dilation_rate": [1, 1], "activation": "linear", "use_bias": false, "kernel_initializer": {"class_name": "VarianceScaling", "config": {"scale": 1.0, "mode": "fan_avg", "distribution": "uniform", "seed": null}}, "bias_initializer": {"class_name": "Zeros", "config": {}}, "kernel_regularizer": null, "bias_regularizer": null, "activity_regularizer": null, "kernel_constraint": null, "bias_constraint": null}, "inbound_nodes": [[["relu5_12_x1", 0, 0, {}]]]}, {"name": "conv5_12_x2_bn", "class_name": "BatchNormalization", "config": {"name": "conv5_12_x2_bn", "trainable": true, "axis": 3, "momentum": 0.99, "epsilon": 1.1e-05, "center": true, "scale": true, "beta_initializer": {"class_name": "Zeros", "config": {}}, "gamma_initializer": {"class_name": "Ones", "config": {}}, "moving_mean_initializer": {"class_name": "Zeros", "config": {}}, "moving_variance_initializer": {"class_name": "Ones", "config": {}}, "beta_regularizer": null, "gamma_regularizer": null, "beta_constraint": null, "gamma_constraint": null}, "inbound_nodes": [[["conv5_12_x1", 0, 0, {}]]]}, {"name": "conv5_12_x2_scale", "class_name": "Scale", "config": {"name": "conv5_12_x2_scale", "trainable": true, "momentum": 0.9, "axis": 3}, "inbound_nodes": [[["conv5_12_x2_bn", 0, 0, {}]]]}, {"name": "relu5_12_x2", "class_name": "Activation", "config": {"name": "relu5_12_x2", "trainable": true, "activation": "relu"}, "inbound_nodes": [[["conv5_12_x2_scale", 0, 0, {}]]]}, {"name": "conv5_12_x2_zeropadding", "class_name": "ZeroPadding2D", "config": {"name": "conv5_12_x2_zeropadding", "trainable": true, "padding": [[1, 1], [1, 1]], "data_format": "channels_last"}, "inbound_nodes": [[["relu5_12_x2", 0, 0, {}]]]}, {"name": "conv5_12_x2", "class_name": "Conv2D", "config": {"name": "conv5_12_x2", "trainable": true, "filters": 32, "kernel_size": [3, 3], "strides": [1, 1], "padding": "valid", "data_format": "channels_last", "dilation_rate": [1, 1], "activation": "linear", "use_bias": false, "kernel_initializer": {"class_name": "VarianceScaling", "config": {"scale": 1.0, "mode": "fan_avg", "distribution": "uniform", "seed": null}}, "bias_initializer": {"class_name": "Zeros", "config": {}}, "kernel_regularizer": null, "bias_regularizer": null, "activity_regularizer": null, "kernel_constraint": null, "bias_constraint": null}, "inbound_nodes": [[["conv5_12_x2_zeropadding", 0, 0, {}]]]}, {"name": "concat_5_12", "class_name": "Concatenate", "config": {"name": "concat_5_12", "trainable": true, "axis": 3}, "inbound_nodes": [[["concat_5_11", 0, 0, {}], ["conv5_12_x2", 0, 0, {}]]]}, {"name": "conv5_13_x1_bn", "class_name": "BatchNormalization", "config": {"name": "conv5_13_x1_bn", "trainable": true, "axis": 3, "momentum": 0.99, "epsilon": 1.1e-05, "center": true, "scale": true, "beta_initializer": {"class_name": "Zeros", "config": {}}, "gamma_initializer": {"class_name": "Ones", "config": {}}, "moving_mean_initializer": {"class_name": "Zeros", "config": {}}, "moving_variance_initializer": {"class_name": "Ones", "config": {}}, "beta_regularizer": null, "gamma_regularizer": null, "beta_constraint": null, "gamma_constraint": null}, "inbound_nodes": [[["concat_5_12", 0, 0, {}]]]}, {"name": "conv5_13_x1_scale", "class_name": "Scale", "config": {"name": "conv5_13_x1_scale", "trainable": true, "momentum": 0.9, "axis": 3}, "inbound_nodes": [[["conv5_13_x1_bn", 0, 0, {}]]]}, {"name": "relu5_13_x1", "class_name": "Activation", "config": {"name": "relu5_13_x1", "trainable": true, "activation": "relu"}, "inbound_nodes": [[["conv5_13_x1_scale", 0, 0, {}]]]}, {"name": "conv5_13_x1", "class_name": "Conv2D", "config": {"name": "conv5_13_x1", "trainable": true, "filters": 128, "kernel_size": [1, 1], "strides": [1, 1], "padding": "valid", "data_format": "channels_last", "dilation_rate": [1, 1], "activation": "linear", "use_bias": false, "kernel_initializer": {"class_name": "VarianceScaling", "config": {"scale": 1.0, "mode": "fan_avg", "distribution": "uniform", "seed": null}}, "bias_initializer": {"class_name": "Zeros", "config": {}}, "kernel_regularizer": null, "bias_regularizer": null, "activity_regularizer": null, "kernel_constraint": null, "bias_constraint": null}, "inbound_nodes": [[["relu5_13_x1", 0, 0, {}]]]}, {"name": "conv5_13_x2_bn", "class_name": "BatchNormalization", "config": {"name": "conv5_13_x2_bn", "trainable": true, "axis": 3, "momentum": 0.99, "epsilon": 1.1e-05, "center": true, "scale": true, "beta_initializer": {"class_name": "Zeros", "config": {}}, "gamma_initializer": {"class_name": "Ones", "config": {}}, "moving_mean_initializer": {"class_name": "Zeros", "config": {}}, "moving_variance_initializer": {"class_name": "Ones", "config": {}}, "beta_regularizer": null, "gamma_regularizer": null, "beta_constraint": null, "gamma_constraint": null}, "inbound_nodes": [[["conv5_13_x1", 0, 0, {}]]]}, {"name": "conv5_13_x2_scale", "class_name": "Scale", "config": {"name": "conv5_13_x2_scale", "trainable": true, "momentum": 0.9, "axis": 3}, "inbound_nodes": [[["conv5_13_x2_bn", 0, 0, {}]]]}, {"name": "relu5_13_x2", "class_name": "Activation", "config": {"name": "relu5_13_x2", "trainable": true, "activation": "relu"}, "inbound_nodes": [[["conv5_13_x2_scale", 0, 0, {}]]]}, {"name": "conv5_13_x2_zeropadding", "class_name": "ZeroPadding2D", "config": {"name": "conv5_13_x2_zeropadding", "trainable": true, "padding": [[1, 1], [1, 1]], "data_format": "channels_last"}, "inbound_nodes": [[["relu5_13_x2", 0, 0, {}]]]}, {"name": "conv5_13_x2", "class_name": "Conv2D", "config": {"name": "conv5_13_x2", "trainable": true, "filters": 32, "kernel_size": [3, 3], "strides": [1, 1], "padding": "valid", "data_format": "channels_last", "dilation_rate": [1, 1], "activation": "linear", "use_bias": false, "kernel_initializer": {"class_name": "VarianceScaling", "config": {"scale": 1.0, "mode": "fan_avg", "distribution": "uniform", "seed": null}}, "bias_initializer": {"class_name": "Zeros", "config": {}}, "kernel_regularizer": null, "bias_regularizer": null, "activity_regularizer": null, "kernel_constraint": null, "bias_constraint": null}, "inbound_nodes": [[["conv5_13_x2_zeropadding", 0, 0, {}]]]}, {"name": "concat_5_13", "class_name": "Concatenate", "config": {"name": "concat_5_13", "trainable": true, "axis": 3}, "inbound_nodes": [[["concat_5_12", 0, 0, {}], ["conv5_13_x2", 0, 0, {}]]]}, {"name": "conv5_14_x1_bn", "class_name": "BatchNormalization", "config": {"name": "conv5_14_x1_bn", "trainable": true, "axis": 3, "momentum": 0.99, "epsilon": 1.1e-05, "center": true, "scale": true, "beta_initializer": {"class_name": "Zeros", "config": {}}, "gamma_initializer": {"class_name": "Ones", "config": {}}, "moving_mean_initializer": {"class_name": "Zeros", "config": {}}, "moving_variance_initializer": {"class_name": "Ones", "config": {}}, "beta_regularizer": null, "gamma_regularizer": null, "beta_constraint": null, "gamma_constraint": null}, "inbound_nodes": [[["concat_5_13", 0, 0, {}]]]}, {"name": "conv5_14_x1_scale", "class_name": "Scale", "config": {"name": "conv5_14_x1_scale", "trainable": true, "momentum": 0.9, "axis": 3}, "inbound_nodes": [[["conv5_14_x1_bn", 0, 0, {}]]]}, {"name": "relu5_14_x1", "class_name": "Activation", "config": {"name": "relu5_14_x1", "trainable": true, "activation": "relu"}, "inbound_nodes": [[["conv5_14_x1_scale", 0, 0, {}]]]}, {"name": "conv5_14_x1", "class_name": "Conv2D", "config": {"name": "conv5_14_x1", "trainable": true, "filters": 128, "kernel_size": [1, 1], "strides": [1, 1], "padding": "valid", "data_format": "channels_last", "dilation_rate": [1, 1], "activation": "linear", "use_bias": false, "kernel_initializer": {"class_name": "VarianceScaling", "config": {"scale": 1.0, "mode": "fan_avg", "distribution": "uniform", "seed": null}}, "bias_initializer": {"class_name": "Zeros", "config": {}}, "kernel_regularizer": null, "bias_regularizer": null, "activity_regularizer": null, "kernel_constraint": null, "bias_constraint": null}, "inbound_nodes": [[["relu5_14_x1", 0, 0, {}]]]}, {"name": "conv5_14_x2_bn", "class_name": "BatchNormalization", "config": {"name": "conv5_14_x2_bn", "trainable": true, "axis": 3, "momentum": 0.99, "epsilon": 1.1e-05, "center": true, "scale": true, "beta_initializer": {"class_name": "Zeros", "config": {}}, "gamma_initializer": {"class_name": "Ones", "config": {}}, "moving_mean_initializer": {"class_name": "Zeros", "config": {}}, "moving_variance_initializer": {"class_name": "Ones", "config": {}}, "beta_regularizer": null, "gamma_regularizer": null, "beta_constraint": null, "gamma_constraint": null}, "inbound_nodes": [[["conv5_14_x1", 0, 0, {}]]]}, {"name": "conv5_14_x2_scale", "class_name": "Scale", "config": {"name": "conv5_14_x2_scale", "trainable": true, "momentum": 0.9, "axis": 3}, "inbound_nodes": [[["conv5_14_x2_bn", 0, 0, {}]]]}, {"name": "relu5_14_x2", "class_name": "Activation", "config": {"name": "relu5_14_x2", "trainable": true, "activation": "relu"}, "inbound_nodes": [[["conv5_14_x2_scale", 0, 0, {}]]]}, {"name": "conv5_14_x2_zeropadding", "class_name": "ZeroPadding2D", "config": {"name": "conv5_14_x2_zeropadding", "trainable": true, "padding": [[1, 1], [1, 1]], "data_format": "channels_last"}, "inbound_nodes": [[["relu5_14_x2", 0, 0, {}]]]}, {"name": "conv5_14_x2", "class_name": "Conv2D", "config": {"name": "conv5_14_x2", "trainable": true, "filters": 32, "kernel_size": [3, 3], "strides": [1, 1], "padding": "valid", "data_format": "channels_last", "dilation_rate": [1, 1], "activation": "linear", "use_bias": false, "kernel_initializer": {"class_name": "VarianceScaling", "config": {"scale": 1.0, "mode": "fan_avg", "distribution": "uniform", "seed": null}}, "bias_initializer": {"class_name": "Zeros", "config": {}}, "kernel_regularizer": null, "bias_regularizer": null, "activity_regularizer": null, "kernel_constraint": null, "bias_constraint": null}, "inbound_nodes": [[["conv5_14_x2_zeropadding", 0, 0, {}]]]}, {"name": "concat_5_14", "class_name": "Concatenate", "config": {"name": "concat_5_14", "trainable": true, "axis": 3}, "inbound_nodes": [[["concat_5_13", 0, 0, {}], ["conv5_14_x2", 0, 0, {}]]]}, {"name": "conv5_15_x1_bn", "class_name": "BatchNormalization", "config": {"name": "conv5_15_x1_bn", "trainable": true, "axis": 3, "momentum": 0.99, "epsilon": 1.1e-05, "center": true, "scale": true, "beta_initializer": {"class_name": "Zeros", "config": {}}, "gamma_initializer": {"class_name": "Ones", "config": {}}, "moving_mean_initializer": {"class_name": "Zeros", "config": {}}, "moving_variance_initializer": {"class_name": "Ones", "config": {}}, "beta_regularizer": null, "gamma_regularizer": null, "beta_constraint": null, "gamma_constraint": null}, "inbound_nodes": [[["concat_5_14", 0, 0, {}]]]}, {"name": "conv5_15_x1_scale", "class_name": "Scale", "config": {"name": "conv5_15_x1_scale", "trainable": true, "momentum": 0.9, "axis": 3}, "inbound_nodes": [[["conv5_15_x1_bn", 0, 0, {}]]]}, {"name": "relu5_15_x1", "class_name": "Activation", "config": {"name": "relu5_15_x1", "trainable": true, "activation": "relu"}, "inbound_nodes": [[["conv5_15_x1_scale", 0, 0, {}]]]}, {"name": "conv5_15_x1", "class_name": "Conv2D", "config": {"name": "conv5_15_x1", "trainable": true, "filters": 128, "kernel_size": [1, 1], "strides": [1, 1], "padding": "valid", "data_format": "channels_last", "dilation_rate": [1, 1], "activation": "linear", "use_bias": false, "kernel_initializer": {"class_name": "VarianceScaling", "config": {"scale": 1.0, "mode": "fan_avg", "distribution": "uniform", "seed": null}}, "bias_initializer": {"class_name": "Zeros", "config": {}}, "kernel_regularizer": null, "bias_regularizer": null, "activity_regularizer": null, "kernel_constraint": null, "bias_constraint": null}, "inbound_nodes": [[["relu5_15_x1", 0, 0, {}]]]}, {"name": "conv5_15_x2_bn", "class_name": "BatchNormalization", "config": {"name": "conv5_15_x2_bn", "trainable": true, "axis": 3, "momentum": 0.99, "epsilon": 1.1e-05, "center": true, "scale": true, "beta_initializer": {"class_name": "Zeros", "config": {}}, "gamma_initializer": {"class_name": "Ones", "config": {}}, "moving_mean_initializer": {"class_name": "Zeros", "config": {}}, "moving_variance_initializer": {"class_name": "Ones", "config": {}}, "beta_regularizer": null, "gamma_regularizer": null, "beta_constraint": null, "gamma_constraint": null}, "inbound_nodes": [[["conv5_15_x1", 0, 0, {}]]]}, {"name": "conv5_15_x2_scale", "class_name": "Scale", "config": {"name": "conv5_15_x2_scale", "trainable": true, "momentum": 0.9, "axis": 3}, "inbound_nodes": [[["conv5_15_x2_bn", 0, 0, {}]]]}, {"name": "relu5_15_x2", "class_name": "Activation", "config": {"name": "relu5_15_x2", "trainable": true, "activation": "relu"}, "inbound_nodes": [[["conv5_15_x2_scale", 0, 0, {}]]]}, {"name": "conv5_15_x2_zeropadding", "class_name": "ZeroPadding2D", "config": {"name": "conv5_15_x2_zeropadding", "trainable": true, "padding": [[1, 1], [1, 1]], "data_format": "channels_last"}, "inbound_nodes": [[["relu5_15_x2", 0, 0, {}]]]}, {"name": "conv5_15_x2", "class_name": "Conv2D", "config": {"name": "conv5_15_x2", "trainable": true, "filters": 32, "kernel_size": [3, 3], "strides": [1, 1], "padding": "valid", "data_format": "channels_last", "dilation_rate": [1, 1], "activation": "linear", "use_bias": false, "kernel_initializer": {"class_name": "VarianceScaling", "config": {"scale": 1.0, "mode": "fan_avg", "distribution": "uniform", "seed": null}}, "bias_initializer": {"class_name": "Zeros", "config": {}}, "kernel_regularizer": null, "bias_regularizer": null, "activity_regularizer": null, "kernel_constraint": null, "bias_constraint": null}, "inbound_nodes": [[["conv5_15_x2_zeropadding", 0, 0, {}]]]}, {"name": "concat_5_15", "class_name": "Concatenate", "config": {"name": "concat_5_15", "trainable": true, "axis": 3}, "inbound_nodes": [[["concat_5_14", 0, 0, {}], ["conv5_15_x2", 0, 0, {}]]]}, {"name": "conv5_16_x1_bn", "class_name": "BatchNormalization", "config": {"name": "conv5_16_x1_bn", "trainable": true, "axis": 3, "momentum": 0.99, "epsilon": 1.1e-05, "center": true, "scale": true, "beta_initializer": {"class_name": "Zeros", "config": {}}, "gamma_initializer": {"class_name": "Ones", "config": {}}, "moving_mean_initializer": {"class_name": "Zeros", "config": {}}, "moving_variance_initializer": {"class_name": "Ones", "config": {}}, "beta_regularizer": null, "gamma_regularizer": null, "beta_constraint": null, "gamma_constraint": null}, "inbound_nodes": [[["concat_5_15", 0, 0, {}]]]}, {"name": "conv5_16_x1_scale", "class_name": "Scale", "config": {"name": "conv5_16_x1_scale", "trainable": true, "momentum": 0.9, "axis": 3}, "inbound_nodes": [[["conv5_16_x1_bn", 0, 0, {}]]]}, {"name": "relu5_16_x1", "class_name": "Activation", "config": {"name": "relu5_16_x1", "trainable": true, "activation": "relu"}, "inbound_nodes": [[["conv5_16_x1_scale", 0, 0, {}]]]}, {"name": "conv5_16_x1", "class_name": "Conv2D", "config": {"name": "conv5_16_x1", "trainable": true, "filters": 128, "kernel_size": [1, 1], "strides": [1, 1], "padding": "valid", "data_format": "channels_last", "dilation_rate": [1, 1], "activation": "linear", "use_bias": false, "kernel_initializer": {"class_name": "VarianceScaling", "config": {"scale": 1.0, "mode": "fan_avg", "distribution": "uniform", "seed": null}}, "bias_initializer": {"class_name": "Zeros", "config": {}}, "kernel_regularizer": null, "bias_regularizer": null, "activity_regularizer": null, "kernel_constraint": null, "bias_constraint": null}, "inbound_nodes": [[["relu5_16_x1", 0, 0, {}]]]}, {"name": "conv5_16_x2_bn", "class_name": "BatchNormalization", "config": {"name": "conv5_16_x2_bn", "trainable": true, "axis": 3, "momentum": 0.99, "epsilon": 1.1e-05, "center": true, "scale": true, "beta_initializer": {"class_name": "Zeros", "config": {}}, "gamma_initializer": {"class_name": "Ones", "config": {}}, "moving_mean_initializer": {"class_name": "Zeros", "config": {}}, "moving_variance_initializer": {"class_name": "Ones", "config": {}}, "beta_regularizer": null, "gamma_regularizer": null, "beta_constraint": null, "gamma_constraint": null}, "inbound_nodes": [[["conv5_16_x1", 0, 0, {}]]]}, {"name": "conv5_16_x2_scale", "class_name": "Scale", "config": {"name": "conv5_16_x2_scale", "trainable": true, "momentum": 0.9, "axis": 3}, "inbound_nodes": [[["conv5_16_x2_bn", 0, 0, {}]]]}, {"name": "relu5_16_x2", "class_name": "Activation", "config": {"name": "relu5_16_x2", "trainable": true, "activation": "relu"}, "inbound_nodes": [[["conv5_16_x2_scale", 0, 0, {}]]]}, {"name": "conv5_16_x2_zeropadding", "class_name": "ZeroPadding2D", "config": {"name": "conv5_16_x2_zeropadding", "trainable": true, "padding": [[1, 1], [1, 1]], "data_format": "channels_last"}, "inbound_nodes": [[["relu5_16_x2", 0, 0, {}]]]}, {"name": "conv5_16_x2", "class_name": "Conv2D", "config": {"name": "conv5_16_x2", "trainable": true, "filters": 32, "kernel_size": [3, 3], "strides": [1, 1], "padding": "valid", "data_format": "channels_last", "dilation_rate": [1, 1], "activation": "linear", "use_bias": false, "kernel_initializer": {"class_name": "VarianceScaling", "config": {"scale": 1.0, "mode": "fan_avg", "distribution": "uniform", "seed": null}}, "bias_initializer": {"class_name": "Zeros", "config": {}}, "kernel_regularizer": null, "bias_regularizer": null, "activity_regularizer": null, "kernel_constraint": null, "bias_constraint": null}, "inbound_nodes": [[["conv5_16_x2_zeropadding", 0, 0, {}]]]}, {"name": "concat_5_16", "class_name": "Concatenate", "config": {"name": "concat_5_16", "trainable": true, "axis": 3}, "inbound_nodes": [[["concat_5_15", 0, 0, {}], ["conv5_16_x2", 0, 0, {}]]]}, {"name": "conv5_blk_bn", "class_name": "BatchNormalization", "config": {"name": "conv5_blk_bn", "trainable": true, "axis": 3, "momentum": 0.99, "epsilon": 1.1e-05, "center": true, "scale": true, "beta_initializer": {"class_name": "Zeros", "config": {}}, "gamma_initializer": {"class_name": "Ones", "config": {}}, "moving_mean_initializer": {"class_name": "Zeros", "config": {}}, "moving_variance_initializer": {"class_name": "Ones", "config": {}}, "beta_regularizer": null, "gamma_regularizer": null, "beta_constraint": null, "gamma_constraint": null}, "inbound_nodes": [[["concat_5_16", 0, 0, {}]]]}, {"name": "conv5_blk_scale", "class_name": "Scale", "config": {"name": "conv5_blk_scale", "trainable": true, "momentum": 0.9, "axis": 3}, "inbound_nodes": [[["conv5_blk_bn", 0, 0, {}]]]}, {"name": "relu5_blk", "class_name": "Activation", "config": {"name": "relu5_blk", "trainable": true, "activation": "relu"}, "inbound_nodes": [[["conv5_blk_scale", 0, 0, {}]]]}, {"name": "New_add_pool_5", "class_name": "GlobalAveragePooling2D", "config": {"name": "New_add_pool_5", "trainable": true, "data_format": "channels_last"}, "inbound_nodes": [[["relu5_blk", 0, 0, {}]]]}, {"name": "New_add_fc1_Dense", "class_name": "Dense", "config": {"name": "New_add_fc1_Dense", "trainable": true, "units": 1024, "activation": "relu", "use_bias": true, "kernel_initializer": {"class_name": "VarianceScaling", "config": {"scale": 1.0, "mode": "fan_avg", "distribution": "uniform", "seed": null}}, "bias_initializer": {"class_name": "Zeros", "config": {}}, "kernel_regularizer": null, "bias_regularizer": null, "activity_regularizer": null, "kernel_constraint": null, "bias_constraint": null}, "inbound_nodes": [[["New_add_pool_5", 0, 0, {}]]]}, {"name": "dropout_1", "class_name": "Dropout", "config": {"name": "dropout_1", "trainable": true, "rate": 0.5}, "inbound_nodes": [[["New_add_fc1_Dense", 0, 0, {}]]]}, {"name": "New_add_fc2_Dense", "class_name": "Dense", "config": {"name": "New_add_fc2_Dense", "trainable": true, "units": 256, "activation": "relu", "use_bias": true, "kernel_initializer": {"class_name": "VarianceScaling", "config": {"scale": 1.0, "mode": "fan_avg", "distribution": "uniform", "seed": null}}, "bias_initializer": {"class_name": "Zeros", "config": {}}, "kernel_regularizer": null, "bias_regularizer": null, "activity_regularizer": null, "kernel_constraint": null, "bias_constraint": null}, "inbound_nodes": [[["dropout_1", 0, 0, {}]]]}, {"name": "dropout_2", "class_name": "Dropout", "config": {"name": "dropout_2", "trainable": true, "rate": 0.5}, "inbound_nodes": [[["New_add_fc2_Dense", 0, 0, {}]]]}, {"name": "New_add_output_layer", "class_name": "Dense", "config": {"name": "New_add_output_layer", "trainable": true, "units": 1, "activation": "sigmoid", "use_bias": true, "kernel_initializer": {"class_name": "VarianceScaling", "config": {"scale": 1.0, "mode": "fan_avg", "distribution": "uniform", "seed": null}}, "bias_initializer": {"class_name": "Zeros", "config": {}}, "kernel_regularizer": null, "bias_regularizer": null, "activity_regularizer": null, "kernel_constraint": null, "bias_constraint": null}, "inbound_nodes": [[["dropout_2", 0, 0, {}]]]}], "input_layers": [["data", 0, 0]], "output_layers": [["New_add_output_layer", 0, 0]]}, "keras_version": "2.0.5", "backend": "tensorflow"}